models/first_rps_model_with_more_data.pth (torch, 114731 bytes, 14 tensors)

layer_block_1.0.weight f4 [20, 3, 3, 3]
0	0x3d8d88df	0.06910872
1	0x3e04dfdd	0.12976022
2	0xbd6d10a7	-0.05787721
3	0x3e0e8e25	0.13921411
4	0xbce6d030	-0.028175443
5	0x3da2ab58	0.079428375
6	0xbe12e8ac	-0.1434657
7	0x3dec73fc	0.1154556
8	0x3e4f80e9	0.20264019
9	0xbe1064c9	-0.14100946
10	0x3e52cbdf	0.20585583
11	0x3d8cdbc1	0.06877852
12	0x3e2de505	0.16981895
13	0x3dda296a	0.1065243
14	0x3e3bca2e	0.18338844
15	0xbd23107f	-0.039810654
16	0x3e4b5e43	0.19860177
17	0x3dd93ab6	0.10606901
18	0xbdef9e96	-0.1170017
19	0x3d8966ba	0.06709047
20	0xbd9106bb	-0.07081362
21	0xba44051c	-0.0007477568
22	0x3b99aebe	0.0046900203
23	0x3e652cbb	0.22380345
24	0xbe23409e	-0.15942618
25	0xbc8f5c79	-0.01750015
26	0x3d44ac50	0.048015893
27	0xbe34baf7	-0.17649446
28	0xbd4ba78b	-0.04972033
29	0xbe6b40ac	-0.22973889
30	0x3dc00e50	0.0937773
31	0xbe5adc68	-0.21373141
32	0x3d9bfbf4	0.076164156
33	0xbd2ccadf	-0.04218566
34	0xbe02a642	-0.12758735
35	0x3ce5b3af	0.028039781
36	0x3c8142df	0.015778957
37	0x3e0bf82a	0.13668886
38	0x3c9f3249	0.019433158
39	0xbd83c9f8	-0.06435007
40	0x3d67096a	0.056405462
41	0xbd3551ca	-0.044267453
42	0x3dc218be	0.094773754
43	0x3e404408	0.18775952
44	0x3dfdf15b	0.123995505
45	0xbe08c8f7	-0.13357912
46	0x3d500839	0.05078909
47	0xb9b6ff59	-0.00034903994
48	0x3d2b854b	0.041875165
49	0xbe1325cd	-0.14369889
50	0xbe66dcfe	-0.2254524
51	0xbde1adfb	-0.11019512
52	0xbe32a822	-0.1744695
53	0x3dd24519	0.102670856
54	0x3e01115a	0.12604275
55	0xbd704976	-0.058663808
56	0xbdc047f9	-0.09388728
57	0x3d25f84d	0.04052
58	0x3de22ffb	0.11044308
59	0xbe4a6013	-0.19763212
60	0x3d9979cf	0.07493936
61	0xbdf86d09	-0.12130172
62	0xbcaf1081	-0.021370174
63	0x3cd818d5	0.026379028
64	0xbd0405d2	-0.032232113
65	0xbe1d497d	-0.15360065
66	0x3e51dbe0	0.20494032
67	0xbe28995b	-0.1646475
68	0xbe4c87f4	-0.19973737
69	0xbdaf5d72	-0.08562745
70	0x3e20b0c0	0.15692425
71	0xbd7f8f4b	-0.062392514
72	0x3e8dbb63	0.27682027
73	0xbe8e8aee	-0.2784037
74	0xbeb7b7b8	-0.35882354
75	0xbdb9a4f4	-0.090646654
76	0xbe163c75	-0.146715
77	0xbba8c653	-0.005150595
78	0x3e093708	0.13399899
79	0x3e4821bd	0.1954412
80	0xbe3a628a	-0.18201652
81	0xbd5cb2ce	-0.05388146
82	0x3e281540	0.16414356
83	0xbc41cccc	-0.011828613
84	0x3e14de58	0.14537942
85	0xbc9a1d8e	-0.01881292
86	0x3e08395b	0.1330313
87	0xbe102057	-0.14074837
88	0xbdd59274	-0.10428324
89	0x3d42652b	0.047459763
90	0x3dfde0a1	0.1239636
91	0x3cd071bf	0.025444863
92	0x3e47d1a4	0.19513565
93	0x3e264f7f	0.16241263
94	0xbde201d4	-0.11035505
95	0xbd8578ea	-0.06517203
96	0x3e3ccac2	0.18436721
97	0xbd91a09f	-0.07110714
98	0xbd923d02	-0.071405426
99	0xbdaafeee	-0.08349405
100	0xbca0704f	-0.019584803
101	0x3e0eeab9	0.13956727
102	0x3c30498b	0.0107597215
103	0xbde85dca	-0.11346014
104	0x3d161527	0.036641266
105	0xbe0f3a1a	-0.13987008
106	0xbe41cce9	-0.18925823
107	0xbe1106da	-0.1416277
108	0xbf05cb01	-0.52262884
109	0xbf01701b	-0.50561684
110	0x3e5b6cd5	0.21428235
111	0xbe99ec0f	-0.3006291
112	0xbe866f5a	-0.2625683
113	0xbed78cd3	-0.42099628
114	0xbefdd0f0	-0.4957347
115	0xbec9dddb	-0.39427075
116	0xbe8047d6	-0.25054806
117	0xbf177d23	-0.5917532
118	0xbf066987	-0.5250477
119	0xbd7f0da3	-0.062268864
120	0xbed926cb	-0.4241241
121	0xbef88ccb	-0.48544917
122	0xbeb3111c	-0.3497399
123	0xbf174c18	-0.59100485
124	0xbf10ecca	-0.5661131
125	0xbef8aac6	-0.4856779
126	0xbeecdf04	-0.46263897
127	0xbf148fc4	-0.5803187
128	0x3e479cf1	0.19493462
129	0xbed95c7f	-0.4245338
130	0xbe662ebd	-0.22478767
131	0xbe7cf3ac	-0.24702328
132	0xbf14d171	-0.5813208
133	0xbe8de70b	-0.27715334
134	0xbed0fe48	-0.40819
135	0xbdf0182d	-0.11723361
136	0xbe4889c5	-0.19583805
137	0xbe58add2	-0.21160057
138	0x3aec9a94	0.0018051439
139	0xbda58153	-0.08081307
140	0x3d394da1	0.04524005
141	0xbe521e86	-0.20519456
142	0x3db358f1	0.087571986
143	0xbe335f2f	-0.17516778
144	0xbd5fd22c	-0.054643795
145	0x3c910011	0.017700227
146	0x3da8c8dd	0.08241437
147	0x3e076c85	0.1322499
148	0x3e21e893	0.15811376
149	0xbe1d6dae	-0.1537387
150	0x3d2dcd0b	0.042431872
151	0xbdb1f37a	-0.086890176
152	0xbca12638	-0.019671544
153	0xbe54d540	-0.20784473
154	0x3ddcfc61	0.10790325
155	0xbe44d728	-0.192227
156	0x3ce3a636	0.027789216
157	0x3b5a4163	0.0033303134
158	0x3bd63191	0.0065366705
159	0xbe28b91a	-0.1647686
160	0x3dd5a3e2	0.10431649
161	0xbc94ba75	-0.018155316
162	0x3e39f92d	0.1816146
163	0xbde992e1	-0.11404968
164	0x3dc583d7	0.09644287
165	0xbe55228b	-0.20813958
166	0xbf18556f	-0.5950536
167	0xbe4bcfb7	-0.19903456
168	0xbe8014dd	-0.25015917
169	0xbf126f44	-0.5720103
170	0xbf0e4a2e	-0.5558194
171	0x3e5c1992	0.2149413
172	0x3e6a1f23	0.2286344
173	0x3cbc3a34	0.022976972
174	0xbe3706fd	-0.1787376
175	0xbf08f2d0	-0.534955
176	0xbef85c40	-0.4850788
177	0xbe56a10c	-0.20959872
178	0xbe8c7a86	-0.27437228
179	0xbf1e41fa	-0.6181942
180	0x3e6cf70d	0.23141117
181	0x3e31c25f	0.17359303
182	0x3d8bc5fe	0.068248734
183	0xbe51bfb2	-0.20483282
184	0xbed233e1	-0.41055205
185	0xbe8dfa79	-0.27730158
186	0xbe383e37	-0.17992483
187	0xbef42679	-0.47685602
188	0xbf0080c5	-0.50196487
189	0xbd468fe6	-0.048477076
190	0xbdda6558	-0.10663861
191	0xbe1d3a05	-0.15354164
192	0x3d526bd3	0.05137236
193	0x3dbdd58e	0.09269248
194	0xbdbe327f	-0.09286975
195	0xbe08bfa2	-0.13354352
196	0xbd9ea3e3	-0.07746103
197	0xbdc15088	-0.09439188
198	0xbddb73ff	-0.10715484
199	0xbdf2ab4d	-0.11849079
200	0xbebb2cf4	-0.36557734
201	0xbe7deb04	-0.24796683
202	0xbc4f4806	-0.012651449
203	0xbdd42aa0	-0.103596926
204	0xbe5f33b5	-0.21797068
205	0xbe981821	-0.2970591
206	0xbe93800e	-0.28808635
207	0xbea138b8	-0.31488585
208	0xbe5e4f40	-0.21709919
209	0xbe0041e4	-0.12525135
210	0xbd00c469	-0.03143731
211	0xbd8079a1	-0.06273199
212	0xbea4d8cb	-0.3219665
213	0xbe9ab02e	-0.3021254
214	0xbe4aff6e	-0.19824001
215	0x3caf4845	0.021396765
216	0x3da43f4a	0.08019884
217	0xbbb71b5f	-0.0055879797
218	0x3dfa13d4	0.12210813
219	0xbd868727	-0.06568747
220	0xbe04512e	-0.12921593
221	0x3e038e09	0.12847151
222	0xbde41923	-0.11137607
223	0xbd9fb78c	-0.07798681
224	0xbe6f102e	-0.23346016
225	0x3e4351cb	0.1907417
226	0x3e4e34c8	0.20137322
227	0x3e0f593e	0.13998887
228	0xbdf53d03	-0.11974528
229	0xbe417fff	-0.18896483
230	0xbe12d8c1	-0.14340498
231	0x3e045c71	0.12925889
232	0x3d5f9345	0.054583807
233	0x3e02c050	0.12768674
234	0x3e3d299b	0.18472902
235	0x3e01e551	0.12685134
236	0x3daa4642	0.08314182
237	0xbe05827c	-0.13038057
238	0xbe271b1d	-0.16318937
239	0xbe2e51d0	-0.17023396
240	0x3d3179bd	0.04332899
241	0xbe1aec22	-0.1512914
242	0xbdc79b29	-0.09746391
243	0xbe15bdca	-0.1462318
244	0xbb8d73fc	-0.004316805
245	0xbe191e86	-0.1495305
246	0xbe2a61ca	-0.16638866
247	0x3cecbee3	0.028899616
248	0xbdafa3e8	-0.085761845
249	0x3d8a858e	0.06763755
250	0xbde139c3	-0.10997345
251	0xbe2b8388	-0.16749394
252	0xbd8a10b7	-0.06741469
253	0xbd749502	-0.059712417
254	0xbd947d92	-0.07250513
255	0xbe675af2	-0.22593287

layer_block_1.0.bias f4 [20]
0	0xbdf516f8	-0.119672716
1	0x3d931bc3	0.071830295
2	0x3c86cfd1	0.016456516
3	0x3da3517e	0.07974528
4	0x3e04f92c	0.12985677
5	0x3d536b9d	0.0516163
6	0x3d9b32ec	0.07578072
7	0x3d730e16	0.059339605
8	0x3e3b37bf	0.18282984
9	0xbdec245b	-0.11530372
10	0x3d6e0d28	0.058118016
11	0xbb6fa86a	-0.0036568888
12	0xbdcec818	-0.100967586
13	0x3d4dbb57	0.05022749
14	0x3c4c4e97	0.012469909
15	0xbddf554c	-0.10904941
16	0x3de80682	0.11329366
17	0x3d7c9d68	0.06167355
18	0xbb01a185	-0.001978011
19	0x3e6ab91f	0.2292218

layer_block_1.2.weight f4 [20, 20, 3, 3]
0	0x3cc66ca7	0.024221731
1	0x3d092049	0.033478055
2	0xbca40bb1	-0.020025106
3	0xbdcdd600	-0.10050583
4	0xbdabf0ed	-0.08395562
5	0xbd865b57	-0.065603904
6	0xbdba2090	-0.09088242
7	0xbd800dfe	-0.06252669
8	0xbdb2e443	-0.08734944
9	0xbdacedfc	-0.084438294
10	0xbd67b06b	-0.05656473
11	0xbdb3a9bc	-0.08772609
12	0xbd5dc402	-0.054142006
13	0x3c899daf	0.016798822
14	0x3d1fbe07	0.038999584
15	0xbd109bce	-0.035304837
16	0xbd336b91	-0.043803755
17	0x3cd68ade	0.026189264
18	0xbcf20119	-0.029541539
19	0xbd051039	-0.032486174
20	0x3d75bc80	0.05999422
21	0xbd98079e	-0.07423328
22	0x3c8c4483	0.017122513
23	0x3dd2053a	0.10254903
24	0x3abb2b6a	0.0014279906
25	0xbb9a1316	-0.0047019823
26	0xbdaec08a	-0.08532818
27	0xbd4df8d7	-0.05028614
28	0xbd3c5db3	-0.045987796
29	0xbc898425	-0.016786644
30	0xbce32b9e	-0.02773076
31	0x3b9fe025	0.004879015
32	0xbde8a4b4	-0.1135954
33	0xbd5900e9	-0.052979384
34	0xbdd511ce	-0.104037866
35	0xbde46843	-0.11152699
36	0xbd884f62	-0.06655766
37	0xbdd44793	-0.10365214
38	0x3c8c280b	0.017108938
39	0xbd646a0c	-0.055765197
40	0xbd9c2a08	-0.07625204
41	0xbbf4325c	-0.0074522924
42	0xbe0c0d84	-0.13677031
43	0xbd814204	-0.063114196
44	0xbd717266	-0.05894699
45	0xbd1f1edb	-0.038847785
46	0xbc9de847	-0.019275798
47	0x3c5ac3cb	0.013352345
48	0x3dadf1ee	0.0849341
49	0x3dcd8db0	0.1003679
50	0x3d8c2139	0.06842274
51	0xbc8370c8	-0.01604499
52	0xbcb01242	-0.021493081
53	0x3dbb16c1	0.09135199
54	0x3a206a51	0.0006119358
55	0xbc9a0634	-0.018801786
56	0xbc2bc0d9	-0.01048299
57	0xbdcf3c7d	-0.10118959
58	0xbd589394	-0.052875116
59	0x3d44569e	0.047934167
60	0xbd577cf0	-0.052609384
61	0xbd0dd6a8	-0.03462854
62	0xbdb82d44	-0.08993009
63	0xbdd83a19	-0.10557956
64	0xbd56f6ea	-0.05248157
65	0xbdb75064	-0.0895088
66	0xbd654800	-0.055976868
67	0xbcdb5325	-0.026773045
68	0xbe061d2c	-0.13097066
69	0xbd292c5b	-0.041302066
70	0xbdccc5f0	-0.09998691
71	0xbda1742e	-0.07883488
72	0x3c0cd15f	0.00859484
73	0x3d270d11	0.040783945
74	0xbd2190a6	-0.039444588
75	0xbd7115b5	-0.058858592
76	0xbdb9da8a	-0.09074886
77	0xbd6e9ccc	-0.058255002
78	0xbdb4a6ca	-0.08820875
79	0xbd17906e	-0.037002973
80	0xbb8ed474	-0.0043588225
81	0xbd84d9b7	-0.06486838
82	0x3d8176d7	0.06321495
83	0xba14edf7	-0.00056812115
84	0xbd95cb66	-0.07314186
85	0xbcd9ac81	-0.026571514
86	0x3c54ef79	0.012996548
87	0xbc1e1b43	-0.009650054
88	0xbc066e06	-0.008204943
89	0xbd1dff8a	-0.03857378
90	0x3d104599	0.035222623
91	0xbd42ebce	-0.047588162
92	0x3d3fc11a	0.046815015
93	0xbab631a3	-0.0013900291
94	0xbcaa96a1	-0.020823779
95	0x3d8ebd20	0.069696665
96	0xbc9c5308	-0.019082561
97	0xbd61ceb0	-0.055128753
98	0x3d002ac4	0.031290784
99	0x3d69148a	0.056904353
100	0xbd5b354e	-0.053517632
101	0x3caa2f26	0.020774435
102	0xbd91a1e5	-0.07110957
103	0x3d1a5e7f	0.037687775
104	0x3cf666ae	0.030078258
105	0x3a9d42c4	0.0011998047
106	0x3cf0ed14	0.029409923
107	0x3ad90f8a	0.0016560417
108	0x3d162f6c	0.03666632
109	0xbd694dbc	-0.0569589
110	0xbcb42827	-0.021991802
111	0x3d30db70	0.043178022
112	0x3d9b4994	0.07582393
113	0x3d0675dc	0.032827243
114	0xbd3d09a5	-0.046151776
115	0x3d3ab38c	0.045581385
116	0xbd3db3dd	-0.04631411
117	0xbd49b172	-0.04924149
118	0xbdca6c51	-0.09883941
119	0xbd1ceed9	-0.03831372
120	0x3c8fce3a	0.017554391
121	0xbcbf1085	-0.023323307
122	0xbd8dca70	-0.069233775
123	0xbc3c13a5	-0.011479293
124	0xbd776965	-0.060403246
125	0x3d0faad9	0.035075042
126	0xbd379e1b	-0.044828515
127	0xbcb375f4	-0.02190683
128	0xbd907b9e	-0.07054828
129	0xbd0ed009	-0.034866367
130	0x3cd635b2	0.02614865
131	0x3da128a6	0.07869081
132	0x3c488405	0.012238507
133	0x3daf1acd	0.08550034
134	0x3bdc33b7	0.006720032
135	0x3c17969a	0.009252215
136	0xbc6e0b29	-0.014529028
137	0xbb8503ad	-0.004059276
138	0xbdb22e14	-0.08700195
139	0x3c486c11	0.012232796
140	0x3b9532a1	0.0045531546
141	0xbd4cd0ca	-0.050003804
142	0xbd087fe4	-0.03332509
143	0xbddd88c8	-0.108171046
144	0x3c110939	0.0088522965
145	0xbd8f240b	-0.069892965
146	0x3c8fe4af	0.0175651
147	0x3c63c615	0.013902207
148	0xbd960524	-0.07325199
149	0x3be837d3	0.007086733
150	0xbc97e634	-0.018542387
151	0x3cb99932	0.022656057
152	0x3cd850e6	0.026405763
153	0xbdc0e353	-0.09418359
154	0x3d49dc9b	0.04928265
155	0x3d4019eb	0.046899717
156	0x3c1043e6	0.008805251
157	0xbdaaca3b	-0.08339354
158	0xbd21d4e6	-0.039509676
159	0xbd1a2c20	-0.037639737
160	0xbcfce02a	-0.030868609
161	0x3d045fe1	0.032318
162	0xbaccbddc	-0.0015620547
163	0x3cd19815	0.025585214
164	0xbd751135	-0.059830863
165	0xbbdfba81	-0.006827653
166	0xbc005c78	-0.007834546
167	0xbdc21645	-0.09476904
168	0xbdd1c29e	-0.102421984
169	0xbd9549af	-0.07289445
170	0x3c8b0ed1	0.016974838
171	0xbdcab8c7	-0.09898525
172	0xbdb43779	-0.08799643
173	0x3ca3ab56	0.01997916
174	0x3c73760f	0.01485969
175	0x3d124752	0.035712548
176	0xbda86518	-0.08222407
177	0xbdaceca7	-0.08443575
178	0x3c0d7fca	0.008636424
179	0x3d2fd83f	0.042930838
180	0xbdbe902f	-0.093048446
181	0xbdca9d60	-0.09893298
182	0xbdec8b60	-0.11550021
183	0xbe13913e	-0.14410874
184	0xbe880ea7	-0.2657368
185	0xbe774dc5	-0.2415076
186	0xbe5551f6	-0.20832047
187	0xbe972183	-0.29517755
188	0xbe9cd3af	-0.30630252
189	0x3d740557	0.059575405
190	0x3d270307	0.04077437
191	0x3d149c92	0.03628213
192	0xbb145a14	-0.0022636699
193	0x3c9347e6	0.01797862
194	0x3dca7639	0.098858304
195	0xbc41514c	-0.011799168
196	0x3d26617c	0.040620312
197	0x3d91c4fd	0.07117651
198	0xbeb88f03	-0.3604661
199	0xbe3563d1	-0.17713858
200	0xbdef4002	-0.116821304
201	0xbe6d2d55	-0.23161824
202	0xbe7f1b9d	-0.24912877
203	0xbe99bb1a	-0.3002556
204	0xbe8c27ce	-0.2737412
205	0xbe1851ab	-0.14874904
206	0x3ba945d9	0.005165797
207	0xbbb9bb82	-0.0056681046
208	0xbcb7829a	-0.022401143
209	0x3d1b6b4e	0.03794413
210	0x3dad5bd6	0.08464782
211	0x3d8e858d	0.069590665
212	0xbd4924b8	-0.049107283
213	0xbd065f90	-0.03280598
214	0xbb1e1a88	-0.00241247
215	0xbc243771	-0.010022984
216	0xbe58723b	-0.21137325
217	0xbe3a820b	-0.1821367
218	0xbe0ee4a7	-0.13954411
219	0xbe59ac7f	-0.21257208
220	0xbe50c11c	-0.20386165
221	0xbe8f2fe1	-0.27966216
222	0xbe6abc4e	-0.22923395
223	0xbe6aa9b1	-0.22916295
224	0xbea55798	-0.3229339
225	0xbdd7388a	-0.10508831
226	0x3c319668	0.010839082
227	0xbca2252a	-0.019793112
228	0xbd9f74a5	-0.0778592
229	0x3d02b13f	0.031907316
230	0xbd77ff06	-0.060545944
231	0xbb8e7be6	-0.004348266
232	0x3bae8f57	0.005327146
233	0xbdc1c5bd	-0.09461544
234	0xbe62f01a	-0.22161904
235	0xbeaaee36	-0.33384866
236	0xbea23ac2	-0.31685454
237	0xbe8585e2	-0.26078707
238	0xbe9e633b	-0.30935082
239	0xbe542499	-0.20717086
240	0xbe619f4c	-0.22033423
241	0xbe392408	-0.18080151
242	0xbe87dc4b	-0.26535258
243	0xbd8a86cb	-0.06763991
244	0xbdde5edb	-0.10857936
245	0xbe08a746	-0.1334506
246	0xbe139bbd	-0.14414878
247	0xbdf2f862	-0.118637815
248	0xbd91be72	-0.07116403
249	0xbe70ec3f	-0.2352762
250	0xbe751d4e	-0.2393696
251	0xbe4bf447	-0.19917403
252	0x3dada35b	0.08478423
253	0x3db4d407	0.088295035
254	0x3db5a738	0.08869785
255	0x3d4b460e	0.049627356

layer_block_1.2.bias f4 [20]
0	0x3cc9d9b6	0.024639945
1	0x3d3a691b	0.045510393
2	0x3bfcefc8	0.007719014
3	0xbda90a3d	-0.08253906
4	0x3d9ca825	0.076492585
5	0x3c8b4381	0.016999962
6	0x3d0b1e0f	0.033964213
7	0xbd319fb3	-0.04336519
8	0x3c870571	0.016482087
9	0xbdb00aa1	-0.08595777
10	0x3c364518	0.011124872
11	0x3c97017f	0.01843333
12	0xbdcdbe4b	-0.10046061
13	0xbd71942e	-0.058979206
14	0xbd940015	-0.07226578
15	0xbcd7e5be	-0.026354667
16	0xbd16138c	-0.036639735
17	0xbab03cdb	-0.0013445871
18	0xbd1c00b9	-0.038086627
19	0x3cc29ee6	0.02375741

layer_block_2.0.weight f4 [20, 20, 3, 3]
0	0xbca1f4ce	-0.019770052
1	0x3ce2200e	0.027603175
2	0x3ccf6d31	0.025320621
3	0xbdabb8d9	-0.08384866
4	0xbd8cf35e	-0.06882356
5	0x3c7736c3	0.01508874
6	0x3d84bfaa	0.064818695
7	0xbd9ee177	-0.07757848
8	0xbcbdc21e	-0.023163851
9	0xbe2a876f	-0.16653226
10	0xbd9333e3	-0.07187631
11	0xba0c00f3	-0.00053407176
12	0xbd815aac	-0.063161224
13	0x3ae08afd	0.0017131265
14	0xbc7caeae	-0.015422506
15	0xbbcb8a90	-0.0062115863
16	0xbd9e507f	-0.07730197
17	0xbccbf46c	-0.024896823
18	0xbca6f3e0	-0.02037996
19	0xbd7d73b8	-0.061877936
20	0xbd352253	-0.044222187
21	0x3c7150ee	0.014728768
22	0xbc636bf5	-0.013880719
23	0xbd60ff9a	-0.05493126
24	0xbc794466	-0.015214061
25	0x3c17827e	0.00924742
26	0xbd6e65e2	-0.05820263
27	0x3d0792b3	0.033098888
28	0xbd92bc4a	-0.071648195
29	0xbaa069a6	-0.0012238517
30	0xbd883c73	-0.06652155
31	0xbd9e7b55	-0.077383675
32	0xbca675ba	-0.020319808
33	0x3d5e5845	0.0542834
34	0x3d541150	0.051774323
35	0x3c91c0f5	0.017792204
36	0x3df7a090	0.12091172
37	0xbbd1a3f6	-0.0063977195
38	0x3d4e878f	0.050422247
39	0x3ce30523	0.02771241
40	0xbdf0ad6f	-0.1175183
41	0xbd969548	-0.07352692
42	0xbd2f33dd	-0.04277407
43	0xbd14aa32	-0.036295123
44	0xbcf217c6	-0.029552352
45	0xbd820d5c	-0.06350204
46	0x3d3d86a0	0.046270967
47	0x3b057068	0.0020361189
48	0xbc0499d9	-0.008093321
49	0xbda04387	-0.0782538
50	0x3d691a8c	0.056910083
51	0xbd6063a4	-0.054782525
52	0x3cd1e991	0.025624068
53	0xbc76d724	-0.015065942
54	0xbd0f1551	-0.03493244
55	0x3c8ac9f3	0.016942
56	0xbd31284f	-0.043251332
57	0xbd7ffc7f	-0.06249666
58	0x3cb50591	0.02209738
59	0xbdd168f4	-0.10225096
60	0xbc7fd0b0	-0.01561372
61	0xbd83927c	-0.06424424
62	0xbd97be03	-0.07409289
63	0x3d5e29ad	0.054238964
64	0x3cfc3336	0.030786138
65	0xbd909dec	-0.07061371
66	0x3da3c214	0.07996002
67	0xbd08b42a	-0.033374943
68	0x3d6c684f	0.057716664
69	0xbbbc9d76	-0.0057560755
70	0x3dbd4db7	0.092433386
71	0x3ce8fb92	0.02844027
72	0xbcce1236	-0.025155168
73	0x3bddd90c	0.006770259
74	0xbcc27b5f	-0.023740469
75	0xbd6d78e0	-0.057976604
76	0x3c9579c1	0.018246533
77	0x3cceb324	0.025231905
78	0xbcfa94b1	-0.03058848
79	0x3d417ca0	0.047237992
80	0xbc8b7bf0	-0.017026871
81	0xbd1e1913	-0.03859813
82	0xbd22e8f5	-0.039772946
83	0x3d49239b	0.04910622
84	0xbcf232b8	-0.0295652
85	0x3d3cd126	0.046097897
86	0xbd91325a	-0.07089682
87	0x3b24c3ec	0.0025141193
88	0xbd4e8df7	-0.050428357
89	0x3cd415dd	0.025889331
90	0x3de3aba4	0.11116722
91	0x3d6eee87	0.058332946
92	0xbbe745d0	-0.007057883
93	0xbdb63d10	-0.088983655
94	0xbd98c91b	-0.07460233
95	0xbd4e8554	-0.05042012
96	0x3cbec1c4	0.023285754
97	0xbd81894e	-0.06325017
98	0x3d66250b	0.05618767
99	0x3e090d9c	0.13384098
100	0x3d8bb536	0.068216726
101	0xbce27ca1	-0.027647318
102	0xbc1b7c48	-0.00949008
103	0xbd2c0c3c	-0.042003855
104	0x3d93cf25	0.07217244
105	0xbd18eda6	-0.037336014
106	0x3c63071c	0.0138566755
107	0x3e196b54	0.14982349
108	0x3dc42efa	0.095792726
109	0x3d951fe4	0.07281473
110	0xbc8a8514	-0.01690916
111	0x3d3bc529	0.045842323
112	0xbd18677e	-0.037208073
113	0xbd48bbb3	-0.04900713
114	0xbd9837fa	-0.07432552
115	0xbe0f36a0	-0.13985682
116	0x3c19a13b	0.009376819
117	0x3dc84411	0.09778608
118	0xbccd9165	-0.025093744
119	0xbcfb844c	-0.030702733
120	0x3c9402dc	0.01806777
121	0xbd9f07fb	-0.07765194
122	0xbd886f15	-0.06661812
123	0xbe07aed9	-0.13250293
124	0xbe2432e4	-0.16035038
125	0x3d1d1cb8	0.038357466
126	0xbc1faa04	-0.009745125
127	0xbcf48e92	-0.02985314
128	0x3d4b8e55	0.049696285
129	0xbd6a4473	-0.057194185
130	0xbc027626	-0.007962739
131	0x3b0a9910	0.0021148361
132	0xbcbdd5f5	-0.023173312
133	0x3d1058d4	0.035240963
134	0xbd8d3b94	-0.06896129
135	0xbc2b3819	-0.010450386
136	0xbc3eea8d	-0.011652601
137	0x3dbdabc3	0.092612766
138	0x3d20fab4	0.03930159
139	0xbd09bd7c	-0.033627972
140	0x3d4af359	0.04954848
141	0x3af9786e	0.0019033083
142	0x3d9c93c2	0.0764537
143	0x3d6c3a17	0.057672586
144	0xbd07a804	-0.033119217
145	0x3d900e4f	0.07033979
146	0xbc816563	-0.015795415
147	0xbca8365c	-0.020533733
148	0x3ca90556	0.020632427
149	0x3d99c2d1	0.075078614
150	0x3d03094b	0.031991284
151	0xbd83bbab	-0.06432279
152	0xbc998ac7	-0.018742932
153	0x3e0a1d87	0.13487826
154	0xbd7843b6	-0.06061145
155	0xbdd38b7b	-0.10329338
156	0xbd991900	-0.074754715
157	0xbdeeb527	-0.11655646
158	0xbde91de5	-0.11382655
159	0xbda803c2	-0.08203842
160	0xbd38daec	-0.045130655
161	0x3d1e8728	0.038703114
162	0x3cfa488a	0.030552167
163	0xbd029a20	-0.031885266
164	0x3c175ac7	0.009237952
165	0x3d05af6c	0.032638
166	0xbdb30cad	-0.08742652
167	0x3c20b42b	0.00980858
168	0xbd6c4b34	-0.057688907
169	0x3d26f0b8	0.04075691
170	0xbd5da987	-0.054116752
171	0x3b83438c	0.004005855
172	0xbc2c1447	-0.010502881
173	0x3cbef7c4	0.023311503
174	0xba1a713e	-0.0005891508
175	0xbd8494f0	-0.0647372
176	0x3c850314	0.01623682
177	0x3d057b95	0.03258856
178	0xbd489dbc	-0.048978552
179	0xbd76de6b	-0.060270708
180	0xbd6fd462	-0.058552153
181	0xbd293b56	-0.041316353
182	0xbc8294f1	-0.015940161
183	0x3c6f6624	0.014611755
184	0x3bcbcab0	0.0062192306
185	0xbcad9491	-0.021189006
186	0x3d3fc7a8	0.046821266
187	0x3b05761b	0.0020364586
188	0xbd40eb82	-0.047099598
189	0xbd4ac4d9	-0.049504135
190	0xbda4b01e	-0.08041404
191	0xbd9bd1a5	-0.07608346
192	0xbdbe9f9c	-0.09307787
193	0x39cc53d5	0.00038972372
194	0xbd73d103	-0.0595255
195	0x3c8b1c29	0.016981201
196	0x3d82d14c	0.063875765
197	0xbd0d9a10	-0.034570754
198	0xbceeb2d9	-0.029138016
199	0xbd41e120	-0.047333837
200	0x3c96633c	0.018357866
201	0x3cefb087	0.02925898
202	0xbcb717f1	-0.022350283
203	0x3d5c7788	0.05382493
204	0x3d2b2d13	0.041791033
205	0xbd29cfb0	-0.04145783
206	0x3c427e42	0.0118709225
207	0xbcf9836d	-0.030458177
208	0xbba9a084	-0.0051766057
209	0x3d310f45	0.043227453
210	0xbbb811a4	-0.0056173373
211	0xbd3e92cd	-0.04652672
212	0x3d74f697	0.05980548
213	0xbd86e4e0	-0.06586623
214	0xbcaa8f19	-0.020820187
215	0x3ce33bdf	0.02773851
216	0xbe1c5c56	-0.15269598
217	0xbde35863	-0.11100843
218	0xbe288205	-0.16455849
219	0xbe66ae04	-0.22527319
220	0xbe5ba3ec	-0.2144925
221	0xbdebf116	-0.11520593
222	0xbd572759	-0.05252776
223	0xbdd3135b	-0.10306426
224	0xbe6a04ed	-0.22853442
225	0x3d19d830	0.037559688
226	0x3d5ed73b	0.05440448
227	0x3d9384c7	0.0720306
228	0x3bb5f2f0	0.005552642
229	0x3da42837	0.08015483
230	0xbd8204cf	-0.063485734
231	0x3b79660b	0.0038055207
232	0x3d3d8f33	0.046279144
233	0x3cfc0a57	0.03076665
234	0x3c2d7318	0.0105865225
235	0xbd928ea8	-0.07156116
236	0x3cc85262	0.024453346
237	0xbdb041bf	-0.0860629
238	0xbd8e87e5	-0.069595136
239	0xbca95815	-0.020671884
240	0xbdaa7980	-0.083239555
241	0xbdad4cbb	-0.08461901
242	0xbd9d01a4	-0.076663285
243	0x3d4f1f8b	0.05056719
244	0x3c7342dd	0.014847484
245	0xbcafd501	-0.021463873
246	0xbb0faa61	-0.0021921622
247	0xbd925a1f	-0.071460955
248	0xbd96cb5f	-0.07363009
249	0xbd172ff8	-0.03691098
250	0xbd98efae	-0.0746759
251	0x3d1f9178	0.03895709
252	0x3bf614f5	0.0075098225
253	0x3c0f449a	0.008744383
254	0xbd2a287f	-0.041542526
255	0x3d46e83b	0.048561316

layer_block_2.0.bias f4 [20]
0	0xbd2c843a	-0.04211829
1	0x3deed1a0	0.116610765
2	0xbdbf4067	-0.09338456
3	0xbdaf3d26	-0.08556585
4	0xbd882d79	-0.06649298
5	0xba7feb14	-0.00097625074
6	0xbc071d6c	-0.008246761
7	0xbd3b4ae3	-0.045725714
8	0xbca0de39	-0.019637214
9	0xbaf6b2d4	-0.0018821605
10	0xbdcbbcd2	-0.09948124
11	0xbd2ef472	-0.04271359
12	0xbd844c22	-0.06459834
13	0x3c8ce2e1	0.017198028
14	0x3d2bee99	0.04197559
15	0xbd8190af	-0.06326424
16	0xbd1757f1	-0.0369491
17	0x3d860e02	0.065456405
18	0xbd9c3399	-0.07627029
19	0x3d538c56	0.051647507

layer_block_2.2.weight f4 [20, 20, 3, 3]
0	0xbe576a24	-0.21036583
1	0xbd9656d3	-0.07340779
2	0xbe109e0e	-0.14122793
3	0xbd6e046d	-0.05810969
4	0xbda04779	-0.07826132
5	0xbe5e637e	-0.21717641
6	0x3d8fd84f	0.070236795
7	0xbc57875b	-0.01315483
8	0xbceeffbe	-0.029174682
9	0x3de7c4d2	0.11316837
10	0x3e562d49	0.20915712
11	0x3e06aaf7	0.13151155
12	0xbdac5657	-0.084149055
13	0xbdd3c823	-0.103409074
14	0x3dbce581	0.09223462
15	0xbe01ecf1	-0.12688042
16	0xbe0e8320	-0.13917208
17	0xbe237b0d	-0.15964909
18	0xbd08e637	-0.033422675
19	0x3c2b5db7	0.010459355
20	0xbd4ae539	-0.04953501
21	0xbcf14641	-0.029452445
22	0x3c884b0b	0.016637346
23	0xbd21b628	-0.03948036
24	0xb9ba0d13	-0.00035486426
25	0xbb5a6395	-0.0033323516
26	0xbc905080	-0.01761651
27	0x3cd798d3	0.02631799
28	0xbdcfd33e	-0.10147713
29	0xbb16238a	-0.0022909367
30	0xbd7a3532	-0.061085887
31	0x3dcf1f0a	0.10113342
32	0x3cb7287f	0.022358177
33	0x3d7816cb	0.060568612
34	0xbc4107b8	-0.011781625
35	0xbb406e89	-0.002936276
36	0x3d9574aa	0.072976425
37	0xbd9475e8	-0.07249051
38	0xbdbcb1b0	-0.09213579
39	0x3dcc9ff0	0.09991443
40	0x3cd691a0	0.026192486
41	0x3d9368c5	0.071977176
42	0x3ce7a4c2	0.028276805
43	0x3db287da	0.08717318
44	0x3d2f100e	0.04273992
45	0xbd2295a3	-0.039693486
46	0xbe037036	-0.12835774
47	0xbdd7dac7	-0.10539775
48	0x3c758758	0.014985882
49	0x3c8c72d8	0.017144606
50	0xbd0fc19d	-0.035096753
51	0x3c0124a3	0.00788227
52	0x3cae38db	0.021267345
53	0x3dab8e10	0.08376706
54	0x3d08ad80	0.033368587
55	0x3c2f641e	0.010705022
56	0xbd6c8457	-0.057743397
57	0xbd243dc2	-0.04009796
58	0x3d1b3dc7	0.037900712
59	0x3d66d1e0	0.056352496
60	0xbd795edd	-0.060881484
61	0x3b5065f2	0.0031799045
62	0xbd5a019d	-0.053224195
63	0x3ccde05e	0.0251314
64	0xbd4b4edf	-0.049635764
65	0xbdebe32b	-0.11517938
66	0xbd46ccf2	-0.048535295
67	0x3b6701b7	0.0035248825
68	0xbb014f75	-0.0019731198
69	0xbc603e41	-0.0136867175
70	0x3dab3732	0.08360137
71	0x3d51558d	0.05110698
72	0xbdc8c95c	-0.09804031
73	0xbd5232e0	-0.05131805
74	0xbe2ac7de	-0.16677806
75	0xbd029377	-0.031878915
76	0xbd2b1c7c	-0.04177521
77	0xbda88371	-0.082281955
78	0x3ddcd737	0.107832365
79	0x3e0069a0	0.12540293
80	0x3d7f7569	0.06236783
81	0xbc0fd0b1	-0.008777783
82	0x3dd597d5	0.1042935
83	0x3caf75a3	0.021418398
84	0x3d1a5dce	0.037687115
85	0x3db7df01	0.089780815
86	0x3d86d0aa	0.06582768
87	0x3d424f30	0.0474388
88	0x3dc087bf	0.094008915
89	0x3cefa783	0.02925468
90	0xbd06b466	-0.032886885
91	0xbb370195	-0.0027924527
92	0xbc805ad5	-0.015668312
93	0x3d847864	0.06468275
94	0xbd38b858	-0.04509768
95	0x3d2b2dad	0.041791607
96	0x3b3f2cc0	0.002917096
97	0x3a6c9282	0.0009024517
98	0x3d1bde44	0.038053766
99	0xbd76e8fa	-0.060280778
100	0xbdbc21a0	-0.09186101
101	0xbd444746	-0.047919534
102	0x3d74b605	0.0597439
103	0x3d329ae1	0.043604735
104	0xbc67aa72	-0.014139758
105	0x3dce000f	0.10058605
106	0x3d59c3da	0.053165294
107	0x3d2ed79c	0.04268609
108	0xbd33522e	-0.043779545
109	0xbc87bbea	-0.016569097
110	0xbdbb64cd	-0.091500856
111	0xbd3cc4a7	-0.04608598
112	0xbd2a9e26	-0.04165473
113	0xbd6f893c	-0.058480486
114	0x3a841ef1	0.0010080022
115	0xbc8f4e5b	-0.017493417
116	0x3da12977	0.07869237
117	0x3e10e2ce	0.14149019
118	0x3c3805e9	0.011231878
119	0x3d12046e	0.035648756
120	0x3e71c123	0.23608832
121	0x3e215887	0.15756427
122	0x3ddd3366	0.10800819
123	0x3dcc5187	0.099764876
124	0x3df65250	0.120274186
125	0x3e010dfe	0.12602994
126	0xbcc648f4	-0.024204709
127	0xbde1f9db	-0.11033984
128	0xbda9d094	-0.08291736
129	0x3cf26680	0.029589891
130	0x3ba08c6f	0.0048995535
131	0xbe0f1e4d	-0.13976403
132	0x3e272e3b	0.1632623
133	0xbb0c0bb2	-0.0021369276
134	0xbdbd0d4d	-0.092310525
135	0x3c54dab4	0.012991596
136	0x3c2a4130	0.0103915185
137	0xbd9d7ec5	-0.07690195
138	0x3d36876f	0.044562753
139	0x3d7be6fa	0.061499573
140	0xbd540001	-0.051757816
141	0x3cceb2dc	0.025231771
142	0xbcc0b8c5	-0.023525605
143	0x3d4edfe8	0.050506502
144	0x3d4bec6f	0.049786028
145	0xbd5fd210	-0.05464369
146	0x3c0e80fe	0.008697746
147	0x3e16c1bd	0.14722343
148	0x3d878922	0.06617953
149	0x3d149d7a	0.036282994
150	0x3db2a8ed	0.08723626
151	0x3ddfecdd	0.1093385
152	0x3e1a8f4e	0.15093729
153	0x3da0e812	0.07856764
154	0x3ddd5b63	0.10808446
155	0x3d18dd3a	0.037320353
156	0x3dc3fca6	0.09569673
157	0x3d73598e	0.059411578
158	0xbd074165	-0.03302135
159	0xbdf690f1	-0.12039364
160	0xbe0026b5	-0.12514766
161	0xbd80df53	-0.06292596
162	0xbd960fc9	-0.073272295
163	0x3d31c892	0.04340417
164	0x3cabaab6	0.020955425
165	0xbca5ae27	-0.020224644
166	0x3da3edba	0.08004327
167	0xbd614322	-0.054995663
168	0xbd11901f	-0.035537835
169	0x3c9884cc	0.01861801
170	0xbda6d848	-0.08146721
171	0x3d67c448	0.056583673
172	0x3df67391	0.12033761
173	0x3e09bd88	0.13451207
174	0xbd762a88	-0.060099155
175	0x3e2838c8	0.1642791
176	0x3dfb795c	0.12279007
177	0xbe156d91	-0.14592578
178	0xbc5f3ae6	-0.013624882
179	0x3d5e0e82	0.054213054
180	0x3d39d273	0.045366716
181	0x3d49af62	0.049239524
182	0xbdb6b3d6	-0.0892102
183	0x3dbb917e	0.0915861
184	0xba1e1a1b	-0.00060311117
185	0x3d3ac2e7	0.04559603
186	0xbd4a7d3a	-0.04943583
187	0x3d59c30e	0.053164534
188	0xbd984cd3	-0.07436528
189	0x3de4a8bc	0.11164996
190	0x3db0e98e	0.08638297
191	0x3d824008	0.06359869
192	0x3e28805e	0.16455218
193	0x3d47ef3b	0.048812132
194	0x3c634401	0.013871194
195	0x3e289386	0.16462526
196	0x3e270780	0.16311455
197	0x3de73ce0	0.11290908
198	0xbcc850ef	-0.024452655
199	0xbcd4cdfb	-0.025977125
200	0xbb1644e9	-0.0022929257
201	0xbc34efd6	-0.0110435095
202	0xbd009ef6	-0.031401597
203	0x3d7eba95	0.062189657
204	0x3c823941	0.015896441
205	0xbd50aafd	-0.050944317
206	0xbbd0ed5e	-0.0063759526
207	0xbd1682b9	-0.03674576
208	0xbd1d516e	-0.038407736
209	0x3d6ff542	0.058583505
210	0x3cc372c3	0.023858434
211	0x3d195428	0.037433773
212	0xbb9a1f88	-0.004703466
213	0xbc439be2	-0.011939021
214	0x3d069bdc	0.032863483
215	0xbd45b4c9	-0.048268113
216	0xbe69ec88	-0.22844136
217	0xbcf1e818	-0.029529616
218	0x3c789011	0.015171067
219	0xbbef9d51	-0.0073124547
220	0xbd259b35	-0.04043122
221	0xbd517ad8	-0.051142544
222	0x3db64f06	0.08901791
223	0xbce45455	-0.027872244
224	0xbe389494	-0.18025428
225	0xbb7414fe	-0.0037243958
226	0x3d41ba84	0.047297016
227	0xbd43f1f4	-0.047838166
228	0xbdadbf56	-0.0848376
229	0x3df6b31f	0.120458834
230	0x3d963b65	0.07335547
231	0xbd88f53d	-0.066874005
232	0x3d6c7819	0.05773172
233	0x3bb39b80	0.0054811835
234	0xbc9b50e8	-0.018959478
235	0x3d56378b	0.052299064
236	0xbd84852a	-0.064707115
237	0xbccc6c17	-0.024953885
238	0x3d6f8af2	0.058482118
239	0xbc1ad480	-0.009450078
240	0xbccad283	-0.024758583
241	0x3d839a77	0.06425946
242	0x3c218924	0.009859357
243	0xbdb8c20b	-0.09021386
244	0xbd02defc	-0.031950936
245	0xbcd4a3cf	-0.025957016
246	0xbdc5ff5c	-0.096678466
247	0xbd210245	-0.039308805
248	0x3bdddeba	0.006770936
249	0x3c97f305	0.018548498
250	0xbdb20eb0	-0.08694208
251	0xbdd012e6	-0.101598546
252	0x3c1f6bb5	0.009730269
253	0x3ba87a7c	0.0051415544
254	0xbda3eb7a	-0.08003898
255	0xbdda98e4	-0.10673693

layer_block_2.2.bias f4 [20]
0	0xbd62601d	-0.055267442
1	0x3dd88ba9	0.10573513
2	0x3d057efc	0.032591805
3	0xbd6b0e1b	-0.0573865
4	0xbc4f1edc	-0.012641635
5	0xbddbe207	-0.10736471
6	0x3d8c3749	0.06846482
7	0xbda0d0e8	-0.07852346
8	0xbd8016f8	-0.06254381
9	0x3d10b82c	0.03533189
10	0xbd84d0ad	-0.06485114
11	0x3dbdab86	0.09261231
12	0xbdc46c85	-0.09591011
13	0xbd103c50	-0.03521377
14	0xbbca58b8	-0.006175127
15	0xbad2316d	-0.0016036459
16	0xbdcbff21	-0.09960771
17	0xbc1e5ce3	-0.009665701
18	0xbd8b7cb7	-0.06810897
19	0xbd9497be	-0.07255505

layer_block_3.0.weight f4 [20, 20, 3, 3]
0	0xbd3660ec	-0.044526026
1	0xbd3e27c6	-0.04642465
2	0xbca04421	-0.019563736
3	0xbbe3070b	-0.00692833
4	0x3dc6abde	0.0970075
5	0xba2be9bc	-0.00065579615
6	0xbdbc6e3e	-0.092007145
7	0x3b2c1d63	0.0026262633
8	0x3bc57dd6	0.0060269637
9	0xbd864c7b	-0.06557556
10	0xbdaa8e98	-0.08327979
11	0xbd9776bd	-0.073956944
12	0xbda37a09	-0.07982261
13	0xbdaf67f7	-0.085647516
14	0x3c0d11d7	0.00861021
15	0xbd632de1	-0.055463675
16	0xbb960595	-0.004578302
17	0x3c9265b3	0.01787076
18	0x3c3f65d9	0.011681997
19	0xbdb8ea22	-0.09029032
20	0x3b8cdb2a	0.0042985873
21	0x3b9c2dc0	0.004766196
22	0xbd8d19b7	-0.0688967
23	0xbd5dc6a2	-0.05414451
24	0x3b87a67f	0.004139721
25	0xbd0e0c47	-0.034679677
26	0xbd687cd4	-0.05675967
27	0xbcb9d9e0	-0.022686899
28	0xbbaf203e	-0.0053444197
29	0x3d4402c3	0.047854196
30	0x3c5e0648	0.013551302
31	0x3cf3f488	0.029779688
32	0xbcaf8ab4	-0.021428443
33	0xbdcc068e	-0.09962188
34	0x3d757341	0.059924368
35	0xbb867318	-0.0041030757
36	0xbd0260b6	-0.031830512
37	0xbdac6fc8	-0.08419758
38	0xbaf858cb	-0.0018947361
39	0xbcf1dde1	-0.029524745
40	0xbdacd59d	-0.08439181
41	0xbdeedc1d	-0.11663077
42	0xbd18b506	-0.037282012
43	0x3c502453	0.012703973
44	0x3b0db111	0.0021620432
45	0xbb81072f	-0.003937624
46	0xbc90612f	-0.017624466
47	0x3c4f20e4	0.012642119
48	0xbd6cc50c	-0.057805106
49	0x3ce0a870	0.027424067
50	0x3c6efdb9	0.014586859
51	0xbdcd0a65	-0.10011748
52	0x3d3549ec	0.04425995
53	0xbc46451c	-0.012101438
54	0xbdabddeb	-0.08391937
55	0xbd5d9409	-0.054096255
56	0x3d76cfa2	0.060256608
57	0xbdc1111f	-0.09427094
58	0xbbc0a20c	-0.0058786925
59	0xbd7e8ba4	-0.06214489
60	0xbdd05ec9	-0.10174329
61	0xbbb4fbb2	-0.0055231685
62	0x3b97a3b4	0.004627669
63	0x3d92f0dd	0.07174847
64	0xbd73e058	-0.059540123
65	0x3d123487	0.035694625
66	0x3d54bf97	0.051940527
67	0xbaeb3f64	-0.0017947969
68	0x3d66a29b	0.056307416
69	0x3d88742d	0.06662784
70	0xbd721987	-0.059106376
71	0x3d16353e	0.03667187
72	0x3ca72264	0.02040214
73	0x3c2e3b4c	0.010634255
74	0x3d647d07	0.055783298
75	0x3bb0d5cb	0.00539658
76	0xbce24b77	-0.027623875
77	0x3d60f9f0	0.05492586
78	0x3d021e2b	0.03176705
79	0x3d110496	0.035404764
80	0xbca0f7ce	-0.019649412
81	0xbdaa289f	-0.08308529
82	0xbce4bc30	-0.027921766
83	0xbd42f874	-0.047600225
84	0xbd24e62e	-0.04025858
85	0xbd6b14d3	-0.057392906
86	0x3c1b2a06	0.009470468
87	0xbd116204	-0.035493866
88	0xbdc26a05	-0.09492878
89	0xbd6c83fe	-0.057743065
90	0xbdbfb5aa	-0.093608215
91	0x3c5ccfcf	0.01347728
92	0xbcbbd0e4	-0.022926755
93	0x3c8474f3	0.016169047
94	0xbdc0fe56	-0.09423511
95	0x3ba054c8	0.004892919
96	0xbdbc3b86	-0.09191041
97	0xbdf7ad1a	-0.120935634
98	0xbd0190cc	-0.03163223
99	0x3c7a8154	0.015289623
100	0xbdacea20	-0.08443093
101	0xbd71d117	-0.059037294
102	0xbc4f4423	-0.012650522
103	0xbdcca5a8	-0.09992534
104	0x3b65dd60	0.0035074577
105	0xbb43e0e9	-0.0029888696
106	0x3ba5f9ae	0.0050651645
107	0x3cf42da4	0.02980692
108	0x3d81da8c	0.06340513
109	0xbd0a1312	-0.033709593
110	0x3d28df7b	0.041228753
111	0x3d233f19	0.039855096
112	0x3d0758d3	0.033043694
113	0xbca33251	-0.019921454
114	0xbd248112	-0.040162154
115	0xbd421410	-0.047382414
116	0x3c804ea3	0.015662497
117	0xbb030bc6	-0.0019996031
118	0x3b721f3b	0.0036944884
119	0x3d85df7b	0.06536766
120	0xbd72e599	-0.059300993
121	0x3c8a506e	0.016884055
122	0x3c57396e	0.013136251
123	0xbb54019d	-0.0032349594
124	0x3d45e74a	0.048316278
125	0x3d421442	0.0473826
126	0xbd846aed	-0.06465707
127	0xbb2400a8	-0.0025024805
128	0xbd663152	-0.05619938
129	0xbd897ebb	-0.06713625
130	0xbda92859	-0.08259649
131	0x3b43e36a	0.0029890188
132	0xbd18d507	-0.037312534
133	0xbd7e542e	-0.062092
134	0xbcec9df3	-0.02888391
135	0xbd925942	-0.07145931
136	0xbd1049ae	-0.035226516
137	0x3d46badb	0.048518043
138	0xbdd4e75e	-0.10395692
139	0xbddc422d	-0.107548095
140	0xbc6715ed	-0.014104349
141	0x3aeb36b6	0.0017945382
142	0xbbc1e383	-0.005917014
143	0xbdcc0983	-0.09962752
144	0x3c5073f5	0.012722959
145	0x3ba290db	0.004961116
146	0x3a8c7e66	0.0010718822
147	0x3d43177f	0.04762983
148	0xbccbab93	-0.024862086
149	0xbc935dd1	-0.017989071
150	0x3d505c4c	0.05086927
151	0x3c97bab1	0.018521639
152	0xbd8de9fd	-0.06929395
153	0xbcfd221d	-0.030900056
154	0x3d0dac2d	0.034588028
155	0x3cfb381a	0.0306664
156	0x3d03f0ae	0.032211952
157	0xbd6eba3f	-0.058283087
158	0xbd911a08	-0.07085043
159	0xbb1fed70	-0.0024402998
160	0x3d2ecd87	0.042676475
161	0x3d48f725	0.04906382
162	0x3c556086	0.013023501
163	0x3d6ab2b6	0.05729934
164	0xbd77bb50	-0.06048137
165	0xbb5395c0	-0.0032285303
166	0xbcb54b1e	-0.022130545
167	0xbcab827b	-0.020936241
168	0x3bc20740	0.0059212744
169	0xbd8842dd	-0.06653378
170	0x39878e43	0.000258552
171	0xbcd17967	-0.025570584
172	0x3d160873	0.03662915
173	0xbd8575de	-0.06516622
174	0xbd24e9d4	-0.04026206
175	0xbd558878	-0.0521321
176	0x3d5fddea	0.054654993
177	0x3d3a0bed	0.04542153
178	0x3d77e493	0.06052072
179	0x3d938fc8	0.072051585
180	0x3c323e84	0.010879163
181	0xbbd0ca98	-0.0063718073
182	0x3ab2dda6	0.0013646379
183	0xbc0ff202	-0.0087857265
184	0xbc3e84b1	-0.011628316
185	0xbd945f43	-0.07244732
186	0x3cbb55db	0.022868088
187	0xbd99c956	-0.07509105
188	0x3cfe4969	0.031040864
189	0xbc097878	-0.008390538
190	0xbb60bc66	-0.0034291982
191	0x3b9d790d	0.00480569
192	0xbbf26821	-0.007397667
193	0xbd75967f	-0.059957977
194	0xbd80ea63	-0.06294706
195	0xbd5e616d	-0.05429213
196	0xbd51326e	-0.051073484
197	0x3d053c99	0.032528494
198	0xbc8e0c31	-0.017339798
199	0xbcb660b0	-0.022262901
200	0xbb7fe572	-0.0039046672
201	0x3d306404	0.043064132
202	0xbcf2a0a4	-0.029617615
203	0xbd6905c0	-0.05689025
204	0xbdbe2a6b	-0.09285434
205	0x3ce8cf78	0.028419241
206	0xbdc6177b	-0.09672447
207	0x3cd62f40	0.026145577
208	0x3d4688ad	0.048470188
209	0x3cde834c	0.027162217
210	0xbc363917	-0.01112201
211	0xbcd49dcc	-0.02595415
212	0x3cec05fd	0.02881145
213	0xbd420786	-0.047370456
214	0x3cbd02d0	0.02307263
215	0xbd177606	-0.03697779
216	0x3cc7650f	0.02434018
217	0xbcf79955	-0.030224482
218	0xbd811332	-0.06302489
219	0xbd2a1638	-0.041525096
220	0x3cf3c3d5	0.029756466
221	0x3c46cace	0.012133313
222	0xbd7f75f0	-0.062368333
223	0xbd636eae	-0.055525474
224	0xbcd18a1e	-0.025578555
225	0xbd00f00b	-0.031478923
226	0xbd147dda	-0.036252834
227	0x3cfb9784	0.030711897
228	0xbc985170	-0.01859352
229	0xbd3a9e07	-0.045560863
230	0xbc6ac900	-0.014330149
231	0xbc034cd7	-0.0080139255
232	0xbdac3577	-0.08408635
233	0xbdd1c914	-0.10243431
234	0xbdaeb7c5	-0.08531145
235	0x3bbc95fb	0.0057551838
236	0xbc981c3c	-0.01856815
237	0xbdb4f2c2	-0.08835365
238	0x3d0ab8de	0.03386771
239	0x3c4650fb	0.012104268
240	0xbdaccc8b	-0.08437451
241	0x3cc6e26a	0.024277885
242	0xbcd4f53c	-0.025995843
243	0x3bc8f172	0.006132298
244	0x3d7573e5	0.05992498
245	0x3d67315f	0.05644357
246	0x3c829c5e	0.015943702
247	0xbd0edc41	-0.03487802
248	0x3d60d224	0.054887906
249	0x3d788521	0.060673837
250	0xbc308616	-0.010774156
251	0xbd6e3aa6	-0.0581614
252	0x3d8c0916	0.068376705
253	0xbd013b34	-0.0315506
254	0xbd32981e	-0.0436021
255	0xbd8d2024	-0.06890896

layer_block_3.0.bias f4 [20]
0	0xbd894d91	-0.06704248
1	0xbd57fa65	-0.05272903
2	0x3c2cfaa3	0.010557803
3	0xbcc4d31a	-0.024026442
4	0x3c1ec3fb	0.00969028
5	0xbda1c78c	-0.07899389
6	0x3e1dfdf7	0.15428911
7	0xbda1deda	-0.07903834
8	0xbe0229e0	-0.12711287
9	0xbd78725e	-0.060655944
10	0xbd40f876	-0.04711195
11	0xbccd3912	-0.025051627
12	0xbdc6c182	-0.097048774
13	0x3b53708d	0.003226313
14	0xbd8de0a8	-0.069276154
15	0xbceb0478	-0.028688654
16	0xbce0411e	-0.0273748
17	0x3d785d59	0.0606359
18	0x3d0317c6	0.032005094
19	0xbdb7345f	-0.08945536

layer_block_3.2.weight f4 [20, 20, 3, 3]
0	0x3c8aad72	0.016928408
1	0xbb825320	-0.0039771944
2	0xbce1eb72	-0.02757809
3	0xb960e1a1	-0.00021446358
4	0x3a943f3f	0.0011310353
5	0x3c3d362e	0.011548562
6	0xbc8b3358	-0.016992256
7	0xbc535d54	-0.012900669
8	0x3d6de52e	0.05807989
9	0xbcbca93e	-0.02302992
10	0x3d684980	0.05671072
11	0xbd39ec98	-0.04539165
12	0x3dbfc0d7	0.09362953
13	0xbc8cd011	-0.017189058
14	0xbcc8d6c2	-0.024516467
15	0x3cf8a0cc	0.030350111
16	0x3db5466b	0.08851322
17	0x3c1709a9	0.009218612
18	0xbcf0106c	-0.029304706
19	0x3c67979e	0.014135269
20	0x3c147fff	0.00906372
21	0xbd2f5013	-0.042800974
22	0xbc5efc57	-0.013609967
23	0x3d7802a6	0.0605494
24	0xbca11514	-0.019663371
25	0xbdae7e39	-0.08520169
26	0xbda9eb40	-0.082968235
27	0x3b4f4f23	0.0031632863
28	0xbda05f05	-0.078306235
29	0xbda7154e	-0.081583604
30	0xbd3e7d59	-0.04650626
31	0xbd8e2e7b	-0.06942459
32	0x3ccee19d	0.025254065
33	0xbdd433f2	-0.1036147
34	0x3a883de7	0.0010394425
35	0xbcedd8aa	-0.029033978
36	0x3c37b17f	0.011211752
37	0xbc44050d	-0.011964095
38	0x3cd3fa5f	0.025876222
39	0x3ce265b9	0.027636396
40	0xbdd1adc4	-0.10238221
41	0x3d1bbffb	0.038024884
42	0xbd4cf2a8	-0.050036103
43	0xbcc95073	-0.024574494
44	0xbd8446e3	-0.06458833
45	0x3d90c8a0	0.07069516
46	0xbd2d9057	-0.04237398
47	0x3c5c14f5	0.013432731
48	0x3cf93492	0.030420575
49	0xbd6e28bc	-0.058144316
50	0x3d86eac6	0.06587748
51	0xba0f8947	-0.0005475473
52	0x3c0fc30e	0.008774532
53	0xbd8a4df6	-0.06753151
54	0xbd785f3a	-0.06063769
55	0xbe5fbaa0	-0.21848536
56	0xbe48359e	-0.19551703
57	0xbc7de0dc	-0.015495505
58	0xbe36fce4	-0.17869908
59	0xbda1457f	-0.078745835
60	0xbc7ae996	-0.01531448
61	0xbd121e22	-0.03567327
62	0xbdd1d698	-0.10246009
63	0xbeabf45a	-0.33584863
64	0xbcda3307	-0.02663566
65	0xbe1757e1	-0.14779617
66	0xbd7d9359	-0.0619081
67	0x3e0fb1a0	0.14032602
68	0x3ddee201	0.108829506
69	0xbc81c25c	-0.015839748
70	0xbda6e89e	-0.08149837
71	0x3df278f3	0.118394755
72	0xbd333c10	-0.043758452
73	0x3c90aee4	0.01766152
74	0xbe9f3de9	-0.3110192
75	0x3cce9ebc	0.025222175
76	0x3aff8b51	0.0019496476
77	0xbd230a58	-0.039804786
78	0xbd7a838b	-0.061160605
79	0xbd731903	-0.059350025
80	0xbd913927	-0.07090979
81	0xbd95d744	-0.07316449
82	0xbd17f5b3	-0.03709955
83	0xbe767966	-0.24069747
84	0x3d19d132	0.03755302
85	0x3e245762	0.16048959
86	0x3cb9cb3f	0.022679923
87	0xbc8ded2d	-0.017325008
88	0xbd56f8f5	-0.052483518
89	0xbd16cd1a	-0.036816694
90	0x3ddc45e1	0.10755516
91	0x3d1fd821	0.039024476
92	0xbd307896	-0.04308375
93	0xbdb43afe	-0.08800314
94	0xbd500e7f	-0.050795075
95	0xbcd1259e	-0.025530633
96	0xbe3c3f45	-0.1838351
97	0x3c019750	0.007909611
98	0xbbb329f1	-0.0054676463
99	0xbcc791f4	-0.024361588
100	0x3dc9e5ae	0.09858261
101	0x3cba2bb4	0.022725917
102	0x3d1827c2	0.03714729
103	0xbd965e71	-0.07342232
104	0x3d7b9f61	0.061431292
105	0x3dd12a72	0.10213174
106	0xbdddcdad	-0.10830245
107	0xbde1d7e0	-0.11027503
108	0xbd421a65	-0.047388453
109	0xbc8bb7dc	-0.017055444
110	0xbda9261c	-0.08259222
111	0xbca6ce38	-0.020362005
112	0x3d1e0645	0.038580198
113	0x3d298d58	0.04139456
114	0x3d2ccecd	0.042189408
115	0x3dd345ff	0.10316085
116	0x3d9ac922	0.07557894
117	0xbe0c07bc	-0.13674825
118	0xbd9cd83d	-0.07658432
119	0xbc0472bb	-0.0080839945
120	0x3cecb8b7	0.028896673
121	0xbcf5ba75	-0.029996136
122	0x3dc84643	0.09779026
123	0xbe4c0658	-0.19924295
124	0xbe1ab96d	-0.15109797
125	0xbdefd85c	-0.11711189
126	0xbd61f9a2	-0.05516971
127	0xbd44b160	-0.04802072
128	0x3cdcff1d	0.026977116
129	0xbd0c29c2	-0.03421951
130	0xbc03e20f	-0.008049502
131	0xbde32514	-0.110910565
132	0x3d13f651	0.036123578
133	0x3cf9ae47	0.03047861
134	0xbda56e5d	-0.08077691
135	0xbe49001d	-0.1962895
136	0xbde290eb	-0.11062797
137	0xbd9abe22	-0.07555796
138	0x3d15dda6	0.036588334
139	0x3cec84e5	0.028871963
140	0xbd873528	-0.066019356
141	0xbe9d987b	-0.30780396
142	0xbea962f2	-0.33083302
143	0xbe35042d	-0.17677374
144	0xbdff15dd	-0.12455342
145	0xbb991c59	-0.0046725688
146	0xbde064b8	-0.109567106
147	0x3b26fbe1	0.0025479721
148	0xbcd723cf	-0.026262192
149	0xbd09f80f	-0.033683833
150	0xbde1c778	-0.11024374
151	0xbe30dbd8	-0.17271364
152	0xbddabd30	-0.10680616
153	0x3dae7649	0.08518655
154	0xbca4256b	-0.020037374
155	0x3d615d9c	0.055020913
156	0x3ab67fac	0.0013923547
157	0x3b8263b9	0.003979173
158	0x3e5ab934	0.21359712
159	0xbcfe05dd	-0.031008655
160	0xbe31e1d5	-0.17371304
161	0xbe0ead50	-0.13933301
162	0xbcc46e7d	-0.023978466
163	0xbb863768	-0.0040959604
164	0x3d2c2b5c	0.04203354
165	0xbdc9b413	-0.098487996
166	0xbdb7f3bf	-0.08982038
167	0xbe348373	-0.17628269
168	0x3e7eeb73	0.24894504
169	0x3dd38db5	0.10329763
170	0x3de8839f	0.1135323
171	0x3d891f9b	0.066954814
172	0xbda2963c	-0.07938811
173	0x3c53c153	0.01292451
174	0x3d6ac54a	0.057317056
175	0x3ac5ca17	0.0015090135
176	0xbd890179	-0.06689734
177	0xbd18f0d6	-0.037339054
178	0xbd88629a	-0.06659432
179	0xbcc75934	-0.024334528
180	0xbcdc25a2	-0.026873413
181	0x3d5ac092	0.053406306
182	0x3d858ead	0.06521354
183	0x3b5d07ea	0.003372664
184	0x3d9d124d	0.07669506
185	0xbcc659f0	-0.024212807
186	0x3d3fc3d5	0.04681762
187	0xbd34df98	-0.044158548
188	0x3d901231	0.0703472
189	0xbd48e8f4	-0.049050286
190	0x3dabb191	0.083834775
191	0xbc658e9f	-0.014011054
192	0xbd6c029d	-0.05761968
193	0x3d86037b	0.065436326
194	0x3c418235	0.011810829
195	0xbd637a16	-0.055536352
196	0x3c65b51a	0.014020229
197	0xbd135345	-0.035968084
198	0xbd2908df	-0.041268226
199	0x3c72e122	0.014824184
200	0x3a83c9f4	0.0010054694
201	0xbd48d586	-0.049031757
202	0x3d611f41	0.054961447
203	0x3ca0256b	0.019549092
204	0xbd1256ce	-0.035727315
205	0x3d232d53	0.039838146
206	0x3d3aa581	0.045567993
207	0x3d333a68	0.043756872
208	0xbcb0257a	-0.021502245
209	0xbcd5a895	-0.026081363
210	0xbcf61995	-0.030041495
211	0xbd20861f	-0.039190408
212	0x3c60b014	0.013713855
213	0xbd9301e1	-0.07178093
214	0xbbde4e3d	-0.006784229
215	0x3cbfd1e8	0.02341552
216	0x3c8099e4	0.01569838
217	0x3d9a9fd6	0.075500175
218	0xbcc3f9e1	-0.023922862
219	0x3cbf1988	0.023327604
220	0xbd82ee57	-0.06393116
221	0x3c66ac12	0.014079111
222	0xbbba9564	-0.0056940783
223	0x3dc7a11e	0.097475275
224	0x3c757836	0.014982274
225	0x3d755bde	0.059902065
226	0x3d764708	0.060126334
227	0x3c0e848e	0.008698596
228	0x3d4c6aa6	0.049906395
229	0x3d931d6e	0.07183348
230	0xbd248b20	-0.040171742
231	0xbd882bc6	-0.06648974
232	0x3c89c3f0	0.016817063
233	0x3d1aef99	0.037826154
234	0x3d845c91	0.06462968
235	0x3dd14a35	0.10219232
236	0x3d137d14	0.036007956
237	0x39cbe919	0.00038892849
238	0xbda13e50	-0.07873213
239	0x3d4ee436	0.050510608
240	0xbdde14d9	-0.1084382
241	0xbd730a95	-0.059336264
242	0xbdb63695	-0.088971294
243	0xbd185d39	-0.03719828
244	0xbde582a7	-0.112065606
245	0xbe4bcf9a	-0.19903412
246	0xbd13dbc9	-0.036098275
247	0xbdc8c222	-0.09802653
248	0xbd36de50	-0.044645607
249	0x3e188033	0.14892654
250	0x3c841623	0.016123837
251	0x3e16fbd9	0.1474451
252	0x3d29c737	0.04144975
253	0x3c78a21a	0.015175367
254	0xbe1f6e53	-0.15569429
255	0x3dc6062e	0.096691474

layer_block_3.2.bias f4 [20]
0	0x3cd34907	0.025791658
1	0x3d211f35	0.039336402
2	0xbb22ea22	-0.0024858792
3	0x3d662740	0.056189775
4	0x3d0b4dbd	0.034009684
5	0xbda8bf86	-0.08239655
6	0xbba6e284	-0.0050929207
7	0xbcfa252f	-0.030535309
8	0xbcaae34e	-0.02086034
9	0xbe430cbd	-0.19047828
10	0xbd92d62f	-0.071697585
11	0x3a3234f6	0.0006798053
12	0xbdaf9834	-0.08573952
13	0x3dda2101	0.10650826
14	0xbcb8afd0	-0.022544771
15	0xbc957cc6	-0.018247973
16	0xbce74de4	-0.028235383
17	0xbd3ea573	-0.046544503
18	0xbd9b6694	-0.075879246
19	0xbd9f141e	-0.07767509
