models/first_rps_model.pth (torch, 114299 bytes, 14 tensors)

layer_block_1.0.weight f4 [20, 3, 3, 3]
0	0x3df15fc6	0.117858455
1	0x3e14ccab	0.145312
2	0xbd859306	-0.06522183
3	0x3e10d11a	0.14142266
4	0xbd66629f	-0.056246396
5	0x3cb47c3a	0.022031892
6	0xbe0ece88	-0.13945973
7	0x3da5c491	0.08094133
8	0x3e126ad7	0.14298569
9	0xbdf4eca4	-0.11959198
10	0x3e4c3274	0.19941121
11	0x3d84fe7b	0.06493851
12	0x3e21658d	0.15761395
13	0x3d7e0971	0.062020723
14	0x3e02f71e	0.1278958
15	0xbca8f2a6	-0.020623516
16	0x3e2e7334	0.17036134
17	0x3d65d53b	0.056111556
18	0xbd7d4274	-0.061830953
19	0x3dba640b	0.09101113
20	0xbd4dbd26	-0.050229214
21	0x3a877799	0.0010335325
22	0xbd0e5724	-0.034751073
23	0x3e2dc1a2	0.16968396
24	0xbe0d7c6f	-0.13816999
25	0xbd695bf7	-0.05697247
26	0xbc98686c	-0.01860448
27	0xbdebbf41	-0.11511088
28	0x3c534c3b	0.012896593
29	0xbe602fd1	-0.2189324
30	0x3e29fe0e	0.1660082
31	0xbe285ae2	-0.16440919
32	0x3e04fecc	0.12987822
33	0x3c004c18	0.007830642
34	0xbd9eba42	-0.077503696
35	0x3dc56242	0.09637882
36	0x3da07d67	0.078364186
37	0x3e4afe4c	0.19823569
38	0x3d142fe3	0.03617848
39	0xbc5adc60	-0.013358206
40	0x3dce65c7	0.10078006
41	0xbca0a0cf	-0.01960793
42	0x3de1fab1	0.11034144
43	0x3e5571f5	0.20844252
44	0x3e0f4c05	0.13993843
45	0xbcd534ce	-0.026026156
46	0x3e27f0a2	0.16400388
47	0x3d6f7fdc	0.058471546
48	0x3e188ba6	0.14897022
49	0xbd73b155	-0.05949529
50	0xbe19234c	-0.14954871
51	0xbd244eab	-0.040114086
52	0xbdd1a4d6	-0.10236518
53	0x3e432e97	0.19060741
54	0x3e062d7e	0.13103291
55	0x3ddd977a	0.108199075
56	0x3d8d1aa7	0.06889849
57	0x3da587ab	0.08082517
58	0x3e342bb4	0.17594796
59	0xbde94ec9	-0.1139198
60	0x3dd79724	0.10526875
61	0xbdb76c4c	-0.08956203
62	0x3dc3401e	0.09533714
63	0xbd1ee691	-0.038794104
64	0x3d046092	0.03231866
65	0xbdc0cfa6	-0.09414606
66	0x3e43f34e	0.19135782
67	0xbe135244	-0.1438685
68	0xbe1fc665	-0.15603025
69	0xbd909614	-0.07059875
70	0x3e19eced	0.15031786
71	0x3cef5897	0.029217048
72	0x3e4b0c6a	0.19828954
73	0xbe46de4b	-0.19420736
74	0xbe849f55	-0.2590281
75	0xbe021199	-0.12702025
76	0xbe319aa1	-0.17344142
77	0x3cb4c9bc	0.02206885
78	0x3dc7efc7	0.09762531
79	0x3dfba912	0.12288107
80	0xbe146654	-0.1449216
81	0xbd6d7396	-0.05797156
82	0x3e21c734	0.15798646
83	0xbb79c58b	-0.003811213
84	0x3e489f44	0.19592005
85	0x3cd5e6a6	0.026110958
86	0x3e33622a	0.17517915
87	0xbd5c555e	-0.05379235
88	0xbc2db7e7	-0.010602928
89	0x3e097b10	0.13425851
90	0x3d5c42f3	0.053774785
91	0xbd4ee0c0	-0.050507307
92	0x3e0a257e	0.13490865
93	0x3e1d4c0b	0.1536104
94	0xbe047385	-0.12934692
95	0xbdc96ca5	-0.098351754
96	0x3e57f0fe	0.21088025
97	0xbd1c66e0	-0.038184047
98	0xbd659e61	-0.056059245
99	0xbe3765a4	-0.17909867
100	0xbdeed9d2	-0.1166264
101	0x3d757ef9	0.059935544
102	0xbc1762ce	-0.0092398655
103	0xbe0b87de	-0.13626048
104	0xbb0e19bf	-0.0021682826
105	0xbdcaeb42	-0.09908153
106	0xbe0eb5a0	-0.13936472
107	0xbdccbfeb	-0.09997543
108	0xbdf8dfdc	-0.12152073
109	0xbd810565	-0.06299857
110	0x3e88e33b	0.26735863
111	0x3dae927f	0.08524036
112	0x3dd11497	0.10209005
113	0xbdedd0a1	-0.116120584
114	0xbd6e5dc7	-0.0581949
115	0xbc06fdf3	-0.008239257
116	0x3d9f5bda	0.07781191
117	0xbe133e8b	-0.14379327
118	0xbd44c8fe	-0.048043244
119	0xbd60911c	-0.054825887
120	0x3cb963a6	0.022630524
121	0xbd661f63	-0.056182276
122	0x3ca99299	0.020699786
123	0xbdb90ae9	-0.09035284
124	0xbddbd23c	-0.107334584
125	0xbdbeaae4	-0.093099385
126	0xbd599929	-0.05312458
127	0xbdfa6c59	-0.12227697
128	0x3e597d5f	0.21239232
129	0xbcaef450	-0.021356732
130	0x3e2ea5c6	0.17055425
131	0x3db07106	0.086153075
132	0xbe04e483	-0.12977795
133	0x3e1387d7	0.14407288
134	0xbd30bd58	-0.043149322
135	0xbd9d463d	-0.076794125
136	0xbe443c82	-0.19163707
137	0xbe8ae8c7	-0.2713072
138	0x3dab7c51	0.08373321
139	0xbd7d4237	-0.061830726
140	0xb9816b6f	-0.00024684842
141	0xbe44fa05	-0.19236
142	0x3e08a054	0.1334241
143	0xbe4a07e5	-0.19729574
144	0xbce8b789	-0.028407829
145	0x3b67290f	0.0035272276
146	0x3cf96070	0.030441493
147	0x3e41e22a	0.18933931
148	0x3e202216	0.15638003
149	0xbe5e306a	-0.21698156
150	0xbc955387	-0.018228306
151	0xbdd0216b	-0.10162624
152	0xbda4f7dc	-0.08055088
153	0xbe0ec5e6	-0.1394268
154	0x3e0aed8e	0.13567182
155	0xbe481936	-0.19540867
156	0x3e065aa2	0.13120511
157	0x3d4a78f5	0.04943176
158	0x3ae7adcb	0.0017675696
159	0xbe3c7d03	-0.18407063
160	0x3e17d568	0.14827502
161	0xbc8765f2	-0.016528104
162	0xbce67b01	-0.028134825
163	0xbe648b59	-0.22318782
164	0x3beb9a0d	0.007189995
165	0xbdbd19bf	-0.09233426
166	0xbe14f0fa	-0.1454505
167	0x3dd7cf63	0.10537603
168	0x3b6934a3	0.0035584352
169	0xbe262953	-0.16226701
170	0xbe188fc0	-0.14898586
171	0xbd6adb8f	-0.057338294
172	0x3d6a1e2b	0.057157677
173	0xbde54e5a	-0.11196585
174	0xbe2ea109	-0.17053618
175	0xbdf9ad3e	-0.121912464
176	0xbe45992c	-0.19296712
177	0x3d13531b	0.035967927
178	0x3dbc05ef	0.09180819
179	0xbe683b7e	-0.22678944
180	0x3a0a1061	0.0005266723
181	0x3d615efd	0.05502223
182	0xbcb664d5	-0.022264877
183	0xbe005ab9	-0.12534608
184	0x3d3fb027	0.04679885
185	0x3d60e5c0	0.054906607
186	0x3d34cbd2	0.04413969
187	0xbdacee77	-0.08443921
188	0xbdbdc0d5	-0.092652954
189	0x3d44d92a	0.048058666
190	0xbc4b67aa	-0.012414852
191	0xbd28df64	-0.041228667
192	0x3e1e6a66	0.15470275
193	0x3e406453	0.1878827
194	0xbb2c4f09	-0.0026292226
195	0x3b6cd573	0.0036137968
196	0x3d218e0d	0.03944211
197	0x3c7151c6	0.014728969
198	0x3d0abbb5	0.033870418
199	0x3d08f325	0.033435006
200	0xbe4cb04d	-0.19989128
201	0xbd9f9d17	-0.077936344
202	0x3e10f528	0.1415602
203	0x3d36be6a	0.044615187
204	0xbb8e62a9	-0.0043452573
205	0xbdf8e85c	-0.12153694
206	0xbe0c3181	-0.13690759
207	0xbe40faee	-0.18845722
208	0xbdb45942	-0.08806087
209	0x3cf9d436	0.030496698
210	0x3ddcabd3	0.1077496
211	0x3d8277e1	0.06370521
212	0xbe4ff88d	-0.20309658
213	0xbdeb016b	-0.1147488
214	0xbd2b18cc	-0.041771695
215	0x3e225e46	0.15856275
216	0x3da6f508	0.08152205
217	0xb925aeed	-0.00015800791
218	0x3e0484f8	0.12941349
219	0xbcd2c74d	-0.0257298
220	0xbda9d62e	-0.08292805
221	0x3e34bacb	0.17649381
222	0xbd09d2b6	-0.033648215
223	0x3b65f1ce	0.0035086754
224	0xbe1c8589	-0.15285315
225	0x3e1236c4	0.14278704
226	0x3e1b8d4a	0.15190616
227	0x3da356f5	0.0797557
228	0xbe03bd8b	-0.12865274
229	0xbe454c10	-0.19267297
230	0xbe2571fc	-0.16156763
231	0x3e193416	0.14961275
232	0x3dae9dca	0.085261896
233	0x3e19036c	0.14942712
234	0x3dd3a149	0.10333497
235	0x3d376aaa	0.044779457
236	0xbb3fb15c	-0.0029250002
237	0xbe19d238	-0.15021598
238	0xbe364a10	-0.1780169
239	0xbe472034	-0.19445878
240	0x3da112e2	0.0786493
241	0xbdd9e442	-0.1063924
242	0xbd68d306	-0.056841873
243	0xbe4f8ccc	-0.20268553
244	0xbdee83c9	-0.1164623
245	0xbe1876fd	-0.1488914
246	0xbdc97277	-0.098362856
247	0x3d5e49ce	0.054269604
248	0xbcc06a89	-0.0234883
249	0x3e8126da	0.25224954
250	0xbaf9338d	-0.0019012556
251	0xbd85369d	-0.06504557
252	0xbdf04376	-0.11731617
253	0xbe45e654	-0.19326144
254	0xbdb8f864	-0.09031752
255	0xbe0cb5ca	-0.13741222

layer_block_1.0.bias f4 [20]
0	0xbe2504e6	-0.1611515
1	0xbc4c469c	-0.012468006
2	0x3c2a72ad	0.010403317
3	0x3baa519c	0.005197717
4	0x3e766c67	0.2406479
5	0x3d1e93af	0.03871506
6	0x3e06d947	0.13168822
7	0x3e1040fb	0.14087288
8	0x3e509491	0.20369174
9	0x3d2deb76	0.04246088
10	0x3afb04fb	0.0019151265
11	0x3d275980	0.04085684
12	0x3d339808	0.04384616
13	0x3dfb9932	0.12285079
14	0xbdef3803	-0.11680605
15	0xbb6ca62a	-0.0036109784
16	0x3e06b1d2	0.1315377
17	0x3d2c1444	0.042011514
18	0x3cee1b25	0.029065678
19	0x3e421294	0.189524

layer_block_1.2.weight f4 [20, 20, 3, 3]
0	0x3cc3cc1a	0.023901034
1	0x3d07cf00	0.033156395
2	0xbd12d4a4	-0.03584732
3	0xbdc4d728	-0.0961135
4	0xbdc541f1	-0.09631718
5	0xbdb510d2	-0.08841099
6	0xbdc4b04e	-0.0960394
7	0xbdb29b55	-0.087210335
8	0xbdf19ab2	-0.11797084
9	0xbdae73d3	-0.085181855
10	0xbd9f69c8	-0.07783848
11	0xbdec6b6a	-0.11543925
12	0xbd8292ac	-0.06375632
13	0xbc9595ee	-0.018259969
14	0x3b8cdb8e	0.004298634
15	0xbc8c7d8a	-0.017149705
16	0xbd51a946	-0.051186822
17	0xbc5f9cfa	-0.013648266
18	0xbd279575	-0.040914018
19	0xbdde1ffc	-0.10845944
20	0xbdc0ef80	-0.09420681
21	0xbd61f68f	-0.055166777
22	0xbc4b6641	-0.012414516
23	0xbd96a088	-0.07354838
24	0x3da3fe71	0.08007515
25	0x3d96cbf9	0.073631234
26	0xbdcd033e	-0.10010384
27	0xbc43d560	-0.011952728
28	0xbc55dd8a	-0.013053307
29	0xbcaeef6b	-0.021354398
30	0x3bd89d5d	0.006610556
31	0x3d72b351	0.05925304
32	0xbdb18126	-0.08667211
33	0xbd12a918	-0.03580579
34	0xbd324afe	-0.04352855
35	0xbd9cf836	-0.0766453
36	0xbabd1c73	-0.0014428034
37	0xbd7a3ee0	-0.06109512
38	0x3d79dcec	0.061001703
39	0x3c4f4a1c	0.012651946
40	0xbcd600ee	-0.02612349
41	0x3d84f347	0.06491714
42	0xbd97a4c8	-0.074044764
43	0xbcdcb296	-0.026940625
44	0x3bf4b824	0.0074682403
45	0xbd39f933	-0.04540367
46	0xbdde3020	-0.10849023
47	0xbd415ecb	-0.047209542
48	0x3db6e46d	0.089302875
49	0x3d5ac78b	0.053412955
50	0xbc545394	-0.01295938
51	0x3d0d886b	0.034553926
52	0xbd026a0a	-0.031839408
53	0xbbbe3a69	-0.005805303
54	0x3de4b92b	0.111681305
55	0x3dc66cb1	0.096887
56	0x3dd0779e	0.10179065
57	0x3c5d9345	0.013523881
58	0x3d9dc402	0.07703401
59	0x3e2b9856	0.1675733
60	0x3c1b4550	0.009476975
61	0x3d795423	0.060871255
62	0x3d1337e5	0.035941977
63	0xbc13da6c	-0.009024244
64	0x3d001753	0.031272244
65	0xbb288572	-0.0025714305
66	0x3cc0849c	0.023500733
67	0x3d80a71f	0.06281876
68	0xbd0c2147	-0.034211423
69	0x3d7ceec6	0.06175115
70	0xbce863fb	-0.028367987
71	0xbc6b4328	-0.014359273
72	0x3de63c54	0.112419754
73	0x3e12cfbf	0.14337061
74	0x3d68b75a	0.056815483
75	0x3d4cdd89	0.05001596
76	0x3c943d9c	0.018095784
77	0x3d211b7a	0.039332844
78	0xbc93713b	-0.017998328
79	0x3d6f9906	0.058495544
80	0x3dc933ad	0.098243095
81	0x3e0c92af	0.1372783
82	0x3e334024	0.17504936
83	0x3dc32775	0.0952901
84	0x3e17384f	0.14767574
85	0x3e0498ff	0.12948988
86	0x3dee206e	0.11627279
87	0x3e52d8d9	0.20590533
88	0x3e6355fd	0.2220077
89	0x3e0c1e07	0.1368333
90	0xbdc0209e	-0.09381221
91	0xbe4ecc31	-0.2019508
92	0xbe07e946	-0.1327258
93	0xbdfd2e01	-0.1236229
94	0xbda82374	-0.08209887
95	0xbd9578df	-0.07298445
96	0xbd74867d	-0.05969857
97	0xbdc72c1a	-0.097252086
98	0xbd139758	-0.036033005
99	0x3d2aa0c4	0.041657224
100	0xbda60ede	-0.081083044
101	0xbbf15def	-0.007365934
102	0xbdc5fcc7	-0.09667354
103	0x3a5d80af	0.00084496563
104	0xbb829fa8	-0.0039863177
105	0xbb0096f8	-0.0019621234
106	0xbb8d37ee	-0.004309646
107	0xbd2347f9	-0.03986356
108	0x3e430e0e	0.1904833
109	0x3c0e8399	0.0086983675
110	0xbc8d075b	-0.017215421
111	0x3e34043d	0.17579742
112	0x3e0b354a	0.13594547
113	0x3da2a9a8	0.079425156
114	0x3e38673e	0.18008134
115	0x3e7a4b8b	0.2444288
116	0x3dcfe059	0.10150213
117	0x3c2063ef	0.009789451
118	0xbceb353b	-0.028711906
119	0x3d0bb5f9	0.03410909
120	0x3d7763ac	0.06039779
121	0x3d2a9194	0.04164274
122	0xbab4658b	-0.0013763172
123	0x3c8d95d3	0.017283356
124	0xbc6f35b5	-0.014600207
125	0x3dcbb8ff	0.099473946
126	0xbdd4f682	-0.1039858
127	0xbd8cd393	-0.06876292
128	0xbde81f6d	-0.11334119
129	0xbd8a633f	-0.06757211
130	0xbc222d04	-0.009898428
131	0x3d1e37ba	0.038627364
132	0xbb7b827c	-0.0038377335
133	0x3d573484	0.052540317
134	0x3b48e94b	0.0030656632
135	0x3e0ac61c	0.13552135
136	0x3e305bc5	0.17222507
137	0x3d05eef2	0.03269858
138	0x3dea10c2	0.114289775
139	0x3dd5e5de	0.10444234
140	0x3d92f77e	0.07176112
141	0x3dddb2ff	0.108251564
142	0x3dfc5862	0.12321545
143	0x3d47e251	0.048799817
144	0x3d7371e8	0.0594348
145	0xbd52dd6e	-0.051480703
146	0xb937422b	-0.0001747689
147	0x3dc31802	0.095260635
148	0xbcfd4e62	-0.030921165
149	0xba8b2c17	-0.0010617998
150	0x3dc4daf9	0.09612078
151	0x3df824c6	0.12116389
152	0x3d8b18b4	0.06791821
153	0xbc160382	-0.00915611
154	0x3df03dc2	0.11730529
155	0x3dbde589	0.09272296
156	0x3d7d647c	0.061863407
157	0xbd22c94d	-0.039742757
158	0xbc331230	-0.010929629
159	0xbd629ee2	-0.055327304
160	0xbd448e3e	-0.047987215
161	0x3c920966	0.017826747
162	0x3cbaf2f8	0.022820935
163	0x3d627ea4	0.055296555
164	0xbd069a96	-0.03286227
165	0x3c75f258	0.0150113925
166	0x3c805812	0.015666995
167	0xbd8f1e12	-0.06988157
168	0xbdaaae15	-0.08333985
169	0xbd5f1b10	-0.05446917
170	0x3d10c951	0.03534824
171	0xbd81c43d	-0.063362576
172	0xbd4f0e72	-0.050550885
173	0x3d6163e9	0.055026922
174	0x3d3d18e6	0.046166323
175	0x3da1314f	0.07870733
176	0xbd07b386	-0.03313019
177	0xbd2421e2	-0.040071376
178	0x3d667f44	0.056273714
179	0x3db63fb1	0.08898867
180	0x3da188b2	0.07887401
181	0x3d759ae5	0.059962172
182	0x3da4821d	0.0803263
183	0x3d635981	0.05550528
184	0xbd60ba53	-0.054865193
185	0xbc8db948	-0.017300263
186	0x3c0dcde1	0.008655042
187	0xbdbe1019	-0.09280414
188	0xbd98787a	-0.07444854
189	0x3d84a969	0.06477625
190	0x3d60c27e	0.054872982
191	0x3d88d4f7	0.06681245
192	0xbd54683a	-0.05185721
193	0xbc621d69	-0.013800957
194	0x3d8ae753	0.06782403
195	0xbd998b5b	-0.07497283
196	0xbd1d60ac	-0.03842227
197	0x3b6654b2	0.0035145697
198	0xbe5260bb	-0.20544712
199	0xbdbc2cf2	-0.0918826
200	0xbe3e2aac	-0.18570966
201	0xbdfdfea9	-0.12402088
202	0xbe15d5e0	-0.14632368
203	0xbe595312	-0.21223095
204	0xbda4fa3d	-0.08055542
205	0x3b2b5e38	0.0026148688
206	0xbdf483c8	-0.11939198
207	0xbd6f587c	-0.058433995
208	0xbc2824e5	-0.010262703
209	0x3dbe24a5	0.09284333
210	0x3cded11c	0.02719932
211	0x3d3c86dd	0.046027053
212	0xbbdae731	-0.006680392
213	0xbd42f931	-0.04760093
214	0xbcc82f91	-0.024436744
215	0xbc983f3d	-0.018584842
216	0xbcc1e03a	-0.02366649
217	0x3d1128d4	0.035439327
218	0x3d1d14c3	0.038349878
219	0x3c28a0c9	0.01029224
220	0x3d336bb3	0.04380388
221	0x3c96ecee	0.018423524
222	0x3d2f819d	0.04284822
223	0x3d39e672	0.045385785
224	0x3beede8f	0.0072897146
225	0xbdd5e150	-0.104433656
226	0x3ba90b08	0.0051587857
227	0x3c885636	0.016642671
228	0xbd7befca	-0.061507978
229	0x3c601ae7	0.013678289
230	0xbd8b8185	-0.06811813
231	0x3d987d49	0.07445771
232	0xbcc83160	-0.024437606
233	0xbe0ee5c0	-0.1395483
234	0x3df8c350	0.12146628
235	0x3b733bd4	0.0037114518
236	0xbbf2e724	-0.007412808
237	0x3da4c713	0.08045783
238	0x3cf09b7c	0.029371016
239	0x3e12f7c5	0.14352329
240	0x3d670850	0.05640441
241	0x3df53360	0.1197269
242	0x3cda7dd4	0.026671328
243	0x3c9efe74	0.019408442
244	0xbd6c3728	-0.05766979
245	0xbd94037a	-0.072272256
246	0xba4213a0	-0.0007403437
247	0x39d33041	0.00040281008
248	0x3cb588f3	0.022160029
249	0xbd20f737	-0.039298262
250	0xbd3cbabb	-0.046076518
251	0xbbabbd40	-0.005241066
252	0x3dc0437c	0.093878716
253	0x3ddd7c80	0.10814762
254	0x3ddedf54	0.1088244
255	0x3d87410d	0.06604204

layer_block_1.2.bias f4 [20]
0	0x3dddd069	0.10830767
1	0x3c80fab5	0.015744546
2	0x3da14191	0.07873834
3	0xbd0d6410	-0.034519255
4	0x3d4b607d	0.049652565
5	0x3b686b37	0.0035464296
6	0xbd27647f	-0.040867325
7	0xbd4aeeb8	-0.049544066
8	0x3db19c95	0.08672444
9	0xbd8edd5c	-0.06975815
10	0xbc90ab47	-0.017659796
11	0xba1afcf3	-0.0005912326
12	0xbdd38ecd	-0.103299715
13	0xbd9340f6	-0.07190125
14	0xbd90c390	-0.070685506
15	0xbc398d8f	-0.011325254
16	0xbc6fef16	-0.014644405
17	0x3d07df1d	0.03317176
18	0xbb9f4cba	-0.0048614414
19	0x3d84679f	0.06465077

layer_block_2.0.weight f4 [20, 20, 3, 3]
0	0x3d35f320	0.044421315
1	0x3d80c0b6	0.06286757
2	0x3c7e40e9	0.0155184055
3	0x3c4a07d2	0.012330966
4	0xbb639f3f	-0.003473237
5	0x3d42d0b3	0.047562312
6	0x3e10327b	0.14081757
7	0x3c01672c	0.007898133
8	0x3d364d7d	0.044507492
9	0xbd071e05	-0.032987613
10	0x3db5b9e3	0.08873346
11	0x3dd09a7f	0.10185718
12	0x3df023f5	0.11725608
13	0x3dd3cb67	0.1034153
14	0x3d9addd2	0.0756184
15	0x3e0b0b3c	0.13578504
16	0x3d0c64d5	0.03427585
17	0x3d92a190	0.07159722
18	0xbafe69f9	-0.0019410244
19	0xbd46ce17	-0.048536386
20	0xbce0aa50	-0.027424961
21	0x3d8e8dbc	0.069606274
22	0x3cd7b614	0.026331939
23	0xbc86aeb2	-0.016440723
24	0x3d2cc7dd	0.042182792
25	0x3d840c13	0.064476155
26	0xbc06754c	-0.008206677
27	0xbb12133c	-0.0022289297
28	0xbe8d8000	-0.2763672
29	0xbe86809d	-0.2627
30	0x3cf82d27	0.030294968
31	0xbe1f77b1	-0.15573002
32	0xbe6c9416	-0.23103365
33	0x3e48fc0f	0.19627403
34	0x3dff50ab	0.12466558
35	0xbccd307a	-0.02504753
36	0x3db7006a	0.08935626
37	0xbd8d1c03	-0.068901084
38	0x3c8547a3	0.01626951
39	0x3dec620b	0.11542138
40	0xbd826def	-0.063686244
41	0xbda39d5e	-0.07989
42	0x3ddb78ee	0.10716425
43	0x3d506c0b	0.050884288
44	0xbd4b7085	-0.049667854
45	0xbd9428c5	-0.07234339
46	0x3c967626	0.018366884
47	0xbcc1f3d6	-0.02367584
48	0xbcbe6405	-0.023241052
49	0xbddbedd8	-0.107387245
50	0x3a38eb49	0.0007054103
51	0xbd836052	-0.06414856
52	0x3b0a93cf	0.002114523
53	0xbd8d999a	-0.06914063
54	0xbb2808dc	-0.0025640046
55	0x3c90c9e8	0.017674401
56	0xbd32f4d2	-0.04369051
57	0xbd54b9ad	-0.051934887
58	0x3d0aed70	0.033917844
59	0xbdd323a6	-0.10309534
60	0x3c1cf966	0.009580946
61	0xbd4cc2ce	-0.049990468
62	0xbd83149d	-0.06400416
63	0x3d033b38	0.032038897
64	0xbbdaa82b	-0.006672879
65	0xbd7e9b37	-0.062159743
66	0x3d63ffb1	0.05566377
67	0xbd3b706c	-0.04576151
68	0x3d86fda5	0.065913476
69	0xbd35cf6f	-0.044387277
70	0x3d59f46a	0.053211607
71	0x3cfd984f	0.030956415
72	0x3c7d4c8e	0.015460147
73	0x3cf10c8a	0.029424924
74	0xbd1cf8f3	-0.038323354
75	0x3c50a3e4	0.012734387
76	0x3da7c1dd	0.08191273
77	0x3d74c14b	0.05975465
78	0x3d1bc8c5	0.038033266
79	0x3dfdafad	0.12387023
80	0x3d26770e	0.040640883
81	0xbd1f8d90	-0.038953364
82	0xbd2468d3	-0.04013903
83	0x3d4afd7e	0.049558155
84	0xbcf46d3a	-0.02983724
85	0x3d3e8e13	0.04652221
86	0xbd928899	-0.0715496
87	0x3b26482b	0.0025372605
88	0xbd5074ea	-0.050892748
89	0x3cd6095c	0.02612751
90	0x3d58de82	0.052946575
91	0x3c81acb5	0.015829423
92	0xbcdc7150	-0.0269095
93	0xbdbfe6b8	-0.09370178
94	0xbda537c8	-0.0806728
95	0xbda5db7d	-0.08098505
96	0x3d60430e	0.05475145
97	0xbdc9136b	-0.09818157
98	0xbd3c6afa	-0.04600046
99	0x3d8b8612	0.06812681
100	0x3c214353	0.0098427115
101	0xbd42d909	-0.047570262
102	0xbc98180f	-0.01856616
103	0xbd96643a	-0.073433354
104	0x3c11ee2e	0.008906884
105	0xb9de8fda	-0.00042450317
106	0xbd54b15b	-0.05192695
107	0x3ad0e562	0.0015937502
108	0x3c978bb4	0.018499233
109	0x3ce86a45	0.028370986
110	0xbcbe77e0	-0.02325052
111	0x3d25736b	0.040393274
112	0x3b19de4d	0.002347845
113	0xbcd37ddb	-0.025816849
114	0x3cb96171	0.022629471
115	0xbd7ec9d4	-0.062204197
116	0xbbda747d	-0.0066667185
117	0x3cb23219	0.021752404
118	0xbda4383b	-0.080185376
119	0xbd5a4d62	-0.053296454
120	0x3d588bf3	0.05286784
121	0xbc03a5e8	-0.008035161
122	0xbc07b161	-0.0082820365
123	0x3c8780b3	0.01654086
124	0xbc6cbe45	-0.014449661
125	0x3db5dd85	0.08880142
126	0xbc7f698a	-0.015589127
127	0xbd378752	-0.044806786
128	0x3cccc0e7	0.024994327
129	0xbd7a7fe1	-0.06115711
130	0xbcd5a530	-0.026079744
131	0xbbcc104f	-0.00622753
132	0xbc7b429f	-0.015335708
133	0x3d2b5a9d	0.041834462
134	0xbd83055a	-0.06397505
135	0xbd14e3cd	-0.03635006
136	0xbc2afa82	-0.010435702
137	0x3d558689	0.052130256
138	0x3c4e21a5	0.012581264
139	0xbd8fcb98	-0.07021254
140	0x3c0a49b7	0.008440427
141	0x3cb125fe	0.021624561
142	0x3d40907b	0.047012787
143	0x3d6c378e	0.05767017
144	0xbd287429	-0.041126404
145	0x3d90f8a6	0.07078676
146	0xbba19900	-0.004931569
147	0xbc780e06	-0.015140062
148	0x3c8fb89d	0.017544085
149	0x3d88d9ce	0.06682168
150	0x3ca40c9d	0.020025546
151	0xbd993cfc	-0.07482335
152	0xbcec32b6	-0.028832775
153	0x3d99a61f	0.07502388
154	0xbd0959d1	-0.03353292
155	0xbcd651b2	-0.026162002
156	0xbd90bc9e	-0.07067226
157	0xbda88785	-0.08228973
158	0xbd976ca0	-0.073937654
159	0x3c8432ed	0.016137565
160	0xbc80b3d9	-0.015710758
161	0x3c27f04b	0.010250161
162	0x3e0f6496	0.14003214
163	0xbd08dfb1	-0.033416454
164	0xbd82bf24	-0.063841134
165	0x3e25dff6	0.16198716
166	0xbd28ff78	-0.04125926
167	0xbd0730df	-0.03300559
168	0x3dd0847d	0.1018152
169	0x3e3de50a	0.18544403
170	0xbcb781e4	-0.022400804
171	0x3c8fde6a	0.01756211
172	0x3ba08dbb	0.004899708
173	0x3dadb6e7	0.084821515
174	0x3ccab087	0.024742378
175	0xbda25e58	-0.07928151
176	0x3d2850d1	0.041092698
177	0x3dfe4bac	0.12416777
178	0xbd905b5a	-0.07048674
179	0xbdb284ca	-0.08716734
180	0xbd622de5	-0.05521955
181	0xbd23f0c7	-0.040024545
182	0xbc26feff	-0.010192632
183	0xbc4bc89f	-0.0124379685
184	0xbc19ad2a	-0.009379664
185	0xbcae95c0	-0.02131164
186	0x3d080284	0.033205524
187	0xbb9e271d	-0.00482644
188	0xbd3de534	-0.046361163
189	0xbca67403	-0.02031899
190	0xbd38fcc2	-0.045162924
191	0xbd0e1de4	-0.034696475
192	0xbd9eb3d7	-0.077491455
193	0x3c6e1ecf	0.0145337125
194	0xbd69e6ba	-0.057104804
195	0x3ce78245	0.02826036
196	0x3d4ff3d1	0.05076963
197	0xbd48a818	-0.04898843
198	0xbd4d2692	-0.05008561
199	0xbda075c1	-0.0783496
200	0xbb14297b	-0.0022607732
201	0xbbd8c3ed	-0.006615153
202	0xbd58be5e	-0.052915923
203	0x3cd751ab	0.02628406
204	0x3c06f683	0.008237484
205	0xbda76aef	-0.08174693
206	0xbc9c2932	-0.019062612
207	0xbd1011eb	-0.035173338
208	0xbc4756ef	-0.012166723
209	0x3d2271cc	0.039659306
210	0xbc740678	-0.01489412
211	0xbd5187f9	-0.051155064
212	0x3d61a6d2	0.055090733
213	0xbd934933	-0.07191696
214	0xbcdcbaeb	-0.026944598
215	0x3d0401bd	0.03222822
216	0x3d3ed747	0.046592023
217	0x3d59ca04	0.053171173
218	0xbd12dc02	-0.035854347
219	0x3b90bf1c	0.0044173133
220	0xbda8ac1e	-0.08235954
221	0xbd03d2d2	-0.032183476
222	0xbd422d4c	-0.04740648
223	0xbb490797	-0.003067469
224	0xbd8761b6	-0.06610434
225	0x3c0dc8d4	0.008653838
226	0x3cf60d0a	0.030035514
227	0x3d4b80c8	0.049683362
228	0xbcabaae9	-0.02095552
229	0x3d72647b	0.059177857
230	0xbd9de867	-0.07710343
231	0xbcf9e819	-0.03050618
232	0x3ca2bef0	0.019866437
233	0x3c396a6a	0.011316875
234	0x3c7f2b96	0.015574357
235	0xbd5ed15a	-0.054398872
236	0x3d27a320	0.040927052
237	0xbd904e01	-0.07046128
238	0xbd6169b7	-0.05503246
239	0xbc41c51a	-0.011826778
240	0xbd9f4b36	-0.07778017
241	0xbda3a1a6	-0.07989816
242	0xbd9c034d	-0.07617817
243	0x3d69e2b6	0.057100974
244	0x3c369492	0.01114382
245	0xbca3209c	-0.01991301
246	0xbbd181dc	-0.0063936543
247	0xbd7df821	-0.062004212
248	0xbd8ba213	-0.068180226
249	0xbd71f23e	-0.05906891
250	0xbd9d5b75	-0.0768346
251	0x3d3a4e4c	0.045484826
252	0xbcf7faa8	-0.03027089
253	0xbcf27217	-0.029595418
254	0xbd8de723	-0.069288515
255	0xb982a39c	-0.0002491743

layer_block_2.0.bias f4 [20]
0	0x3ce5cf8c	0.028053068
1	0xba0b1d5a	-0.0005306803
2	0xbdaf69ef	-0.08565127
3	0xbd0ea77f	-0.034827705
4	0xbca25284	-0.019814737
5	0x3d5fcfa6	0.05464139
6	0x3c50949e	0.012730746
7	0x3d5767e5	0.052589316
8	0xbcf86d94	-0.030325688
9	0x3c4de8e6	0.012567734
10	0xbd8f5821	-0.06999231
11	0x3cae4393	0.021272456
12	0xbd4a4ff4	-0.049392655
13	0xbc56dda5	-0.013114368
14	0xbd7705a7	-0.060308125
15	0xbdcaa701	-0.09895135
16	0xbd80f16e	-0.06296049
17	0xbd8970b5	-0.0671095
18	0xbd23fc34	-0.04003544
19	0x3d07f2f3	0.03319068

layer_block_2.2.weight f4 [20, 20, 3, 3]
0	0xbd715f51	-0.05892879
1	0xbab1d774	-0.0013568238
2	0xbd69ae63	-0.057051074
3	0xbd7b7174	-0.061387494
4	0xbdc1169a	-0.09428139
5	0xbdd23b85	-0.10265259
6	0xbddd6bd1	-0.1081158
7	0xbe24cffe	-0.16094968
8	0xbe306458	-0.17225778
9	0x3d45f3f0	0.04832834
10	0x3d81b1a6	0.06332712
11	0xbd6344a5	-0.055485386
12	0x3cc3e780	0.023914099
13	0xbd09c5a3	-0.033635747
14	0x3d8d2824	0.06892422
15	0x3d382f7e	0.044967167
16	0x3d1cbe5e	0.038267486
17	0xbd6ca63a	-0.057775714
18	0xbd146548	-0.0362294
19	0xbc7d9e58	-0.015479647
20	0xbd86dde5	-0.06585292
21	0xbd30511c	-0.043046102
22	0x3c9edd4e	0.019392636
23	0xbd759a74	-0.05996175
24	0x3ca08b4e	0.019597676
25	0xbadca08f	-0.0016832518
26	0xbbc6c18b	-0.0060655526
27	0x3c5a11db	0.013309921
28	0xbcb7248b	-0.022356292
29	0xbd571cb6	-0.052517615
30	0xbc857290	-0.01628998
31	0x3d8404c7	0.06446224
32	0x3d633591	0.055471007
33	0x3dd16d91	0.10225976
34	0x3cf119b1	0.029431196
35	0x3d08c827	0.033394005
36	0xbb9579ac	-0.0045616236
37	0xbdf12a25	-0.117756166
38	0xbdb5a9d9	-0.088702865
39	0x3cb5c0bf	0.022186635
40	0xbd251c31	-0.04031009
41	0x3d44d172	0.048051305
42	0xbc25bccf	-0.010115816
43	0x3d5ac9bd	0.05341505
44	0x3cdd9323	0.0270477
45	0xbdadf5dc	-0.084941596
46	0xbe1378bc	-0.14401525
47	0xbda284de	-0.07935499
48	0xbd950ca7	-0.07277804
49	0xbd6ac504	-0.057316795
50	0xbd6a1c18	-0.0571557
51	0xbd183a73	-0.037165117
52	0xbd0db3de	-0.034595363
53	0x3d1a9d2f	0.03774756
54	0x3da8ad18	0.0823614
55	0x3d960776	0.07325642
56	0xbc0353fc	-0.008015629
57	0xbc139078	-0.009006612
58	0x3d9a519c	0.07535097
59	0x3d9df3f9	0.0771255
60	0xbcc9fd27	-0.024656845
61	0x3d044f6c	0.032302305
62	0xbc6a4e17	-0.014300845
63	0x3d72b339	0.05925295
64	0xbc39fe76	-0.011352172
65	0xbd684de4	-0.056714907
66	0xbd566b97	-0.0523487
67	0x3c893140	0.016747117
68	0x3d6cb70a	0.057791747
69	0xbccc1df6	-0.02491663
70	0x3d9b565c	0.07584831
71	0x3d981b28	0.07427055
72	0xbd1b6a35	-0.037943084
73	0xbd1e82e8	-0.03869906
74	0xbdde59ba	-0.10856958
75	0xbd9d0ee3	-0.07668855
76	0xbd8c9c29	-0.06865723
77	0xbd65e348	-0.056124955
78	0xbdc8c1d0	-0.09802592
79	0xbdcbff97	-0.09960859
80	0xbcdc6531	-0.02690372
81	0xbe01bf97	-0.12670742
82	0xbc7af83c	-0.015317973
83	0xbd32fa0a	-0.043695487
84	0xbcff56de	-0.031169351
85	0xbcf66fe7	-0.030082656
86	0xbcbcc1cc	-0.023041628
87	0xbd5f0764	-0.054450408
88	0x3c19f3a5	0.009396468
89	0xbd6e4ba5	-0.05817761
90	0xbd18403e	-0.03717064
91	0xbc53fad5	-0.012938221
92	0xbc7165b8	-0.014733724
93	0x3d5b9e87	0.05361798
94	0xbd24b144	-0.040208116
95	0x3d7d289e	0.061806314
96	0x3d0c86ca	0.034308232
97	0x3cc459d5	0.023968617
98	0x3d56dc17	0.052455988
99	0xbd27eb68	-0.040995985
100	0xbd84c78d	-0.06483374
101	0xbb1bcd25	-0.0023773399
102	0x3d28312e	0.041062526
103	0x3d297c87	0.041378524
104	0x3add0c87	0.0016864695
105	0x3d8634ac	0.06553015
106	0x3d080fa8	0.033218056
107	0x3cc22e92	0.023703847
108	0xbd4cccd6	-0.050000034
109	0xbbc3a36d	-0.0059704096
110	0xbd40e800	-0.047096252
111	0xbd736fac	-0.05943267
112	0xbd421d24	-0.047391072
113	0xbd069dab	-0.032865208
114	0xbc0b59d1	-0.008505301
115	0xbc917087	-0.017753853
116	0x3dd69dc7	0.104793124
117	0x3db8c22a	0.09021409
118	0x3c29f301	0.010372878
119	0x3d91e211	0.07123197
120	0x3dbc2310	0.09186375
121	0x3d288887	0.041145828
122	0x3d8273e5	0.063697614
123	0x3c0e4036	0.008682301
124	0xbcf9f797	-0.030513568
125	0xbd126359	-0.035739277
126	0xbd27fc9d	-0.041012395
127	0xbd01c2fb	-0.03168009
128	0x3d7727a9	0.060340557
129	0xbd7eb2fc	-0.06218241
130	0x3ccf65c4	0.02531708
131	0x3bcf75db	0.006331188
132	0xbb26ec76	-0.0025470532
133	0x3bacbcbc	0.0052715223
134	0xbc4082de	-0.011749951
135	0x3ca893d9	0.020578312
136	0x3d0fe2ef	0.03512853
137	0xbcaf83dc	-0.02142518
138	0x3d9bb4dc	0.076028556
139	0x3dd0d786	0.10197358
140	0x3c956ff0	0.018241853
141	0x3d1a1a6a	0.037622847
142	0xbd1c0f1d	-0.03810035
143	0x3d54d8fa	0.051964737
144	0x3c6b76d0	0.014371589
145	0xbd29053d	-0.04126476
146	0x3d4f6889	0.050636802
147	0x3db345b7	0.087535314
148	0x3c9f795c	0.019467048
149	0xbbca2dda	-0.0061700167
150	0x3c963fa8	0.0183409
151	0x3d81b557	0.06333416
152	0x3dba2642	0.09089328
153	0xbd1bfbf9	-0.038082097
154	0x3c60b7ef	0.013715728
155	0x3d067d1b	0.032834154
156	0x3d713c09	0.058895145
157	0x3d21320a	0.03935436
158	0xbd8088fd	-0.062761284
159	0xbd9b5f4a	-0.07586534
160	0xbdb1f2c9	-0.08688886
161	0x3cb73b96	0.02236728
162	0x3be4be8b	0.0069807223
163	0x3dc8297e	0.09773539
164	0x3d2bef01	0.04197598
165	0x3cbef841	0.023311736
166	0x3dd07dd9	0.101802535
167	0x3d2a5327	0.041583207
168	0x3aec222d	0.0018015556
169	0x3bcd28aa	0.006260951
170	0xbcbc8c13	-0.023016011
171	0xbde7a54f	-0.11310827
172	0xbd98b366	-0.074560925
173	0xbd08c6f6	-0.03339287
174	0xbd433945	-0.04766204
175	0x3d41e188	0.047334224
176	0xbbb51a60	-0.005526826
177	0xbc60be4e	-0.013717247
178	0x3da194df	0.07889723
179	0x3d83211e	0.06402801
180	0x3c6048f4	0.013689268
181	0x3d1fd371	0.039020006
182	0xbdb29da6	-0.08721475
183	0x3d58ae2d	0.052900482
184	0x3d3440cf	0.04400712
185	0x3bde7fb5	0.006790126
186	0xbdb52a7b	-0.08845993
187	0x3d92ff31	0.0717758
188	0xbd9fc552	-0.07801308
189	0xbc78a5cf	-0.015176251
190	0xbd4da043	-0.050201666
191	0xbcfbcbe7	-0.030736877
192	0x3c954001	0.018218996
193	0xbd8a9e28	-0.06768447
194	0xbd8a9600	-0.067668915
195	0x3c2ba952	0.010477381
196	0x3cf86d3f	0.03032553
197	0x3c02e5c3	0.00798935
198	0xbcd871ec	-0.02642151
199	0xbc8eafa9	-0.017417746
200	0xbc6189c0	-0.013765752
201	0xbc1f3005	-0.009716039
202	0xbd4258a2	-0.047447808
203	0x3d543a74	0.051813558
204	0x3c5671ad	0.013088626
205	0xbd49d7cd	-0.04927807
206	0xbc33fb7a	-0.01098525
207	0x3da306ae	0.079602584
208	0xbdce4685	-0.10072044
209	0xbd59c798	-0.053168863
210	0x3e278e58	0.16362894
211	0xbd210a2c	-0.03931634
212	0xbdfb2e76	-0.12264721
213	0x3dc0ecc6	0.09420161
214	0xbceff6f1	-0.029292556
215	0xbe2cdf47	-0.16882049
216	0xbe368cee	-0.17827198
217	0x3cee6cf8	0.029104695
218	0x3da01597	0.07816618
219	0xbd156ce6	-0.036480807
220	0x3d5fd2ae	0.05464428
221	0x3e030939	0.12796487
222	0xbd666142	-0.056245096
223	0x3cc735ad	0.024317587
224	0x3de47583	0.11155226
225	0xbe005250	-0.125314
226	0xbcbdf4cd	-0.02318802
227	0x3c75d98d	0.015005481
228	0xbe2fcfe0	-0.17169142
229	0x3d032a93	0.032023024
230	0x3da960ac	0.08270392
231	0xbe01f596	-0.1269134
232	0x3d53eb00	0.051737785
233	0x3d92c8dd	0.07167218
234	0x3c883dfe	0.016631123
235	0x3d8a04ee	0.067392215
236	0xbddc7c0a	-0.10765846
237	0xbbb02d44	-0.00537649
238	0x3d8a3c01	0.06749726
239	0xbd782806	-0.060585044
240	0xbd073b89	-0.03301576
241	0x3d705bea	0.058681406
242	0xbd2c95ee	-0.04213517
243	0xbe02a63b	-0.12758724
244	0xbdb9d292	-0.09073366
245	0x3d2ed3f4	0.042682603
246	0xbd164d6a	-0.03669492
247	0xbd8875ba	-0.066630796
248	0x3d6fd8d3	0.05855639
249	0x3d01a4ad	0.031651188
250	0xbd308285	-0.043093223
251	0x3d2b42dc	0.04181181
252	0xbdc1c98e	-0.09462272
253	0xbccc6ede	-0.02495521
254	0xbd68a9e0	-0.05680263
255	0xbe4e72a8	-0.20160925

layer_block_2.2.bias f4 [20]
0	0x3d04c876	0.032417737
1	0x3da1570b	0.0787793
2	0x3d06ea4a	0.03293828
3	0xbd18ada3	-0.037274968
4	0xbcecead2	-0.028920565
5	0xbd23512d	-0.039872337
6	0x3beada12	0.0071671093
7	0xbd88f542	-0.06687404
8	0xbc8f6926	-0.017506193
9	0x3a16b14b	0.00057484646
10	0xbdb30873	-0.08741846
11	0x3d3cf37b	0.04613064
12	0xbc9fe578	-0.019518599
13	0xbba27e25	-0.0049588853
14	0xbd111817	-0.035423364
15	0x3cb09169	0.021553712
16	0xbd57cd32	-0.052685924
17	0x3d27ce15	0.04096802
18	0xbd65a86c	-0.056068823
19	0xbdeec60a	-0.11658867

layer_block_3.0.weight f4 [20, 20, 3, 3]
0	0x3bca50ea	0.0061741965
1	0xbb96dc75	-0.0046039172
2	0x3db56f37	0.08859103
3	0x3d5d08d1	0.053963486
4	0x3dc97f64	0.09838751
5	0xbc0d3ea7	-0.0086208945
6	0xbd861ae6	-0.06548099
7	0x3d18dcae	0.03731983
8	0x3d2f02d2	0.0427273
9	0xbda549d1	-0.0807072
10	0xbdca467d	-0.09876726
11	0xbd3a2915	-0.045449335
12	0xbdda767b	-0.106671296
13	0xbde25585	-0.11051468
14	0x3dad1a1f	0.08452248
15	0xbd95f87d	-0.07322786
16	0x3d05fa98	0.032709688
17	0x3e04b8b3	0.12961082
18	0x3b9d922f	0.004808686
19	0xbd98e379	-0.07465262
20	0x3d9a9d6f	0.07549559
21	0xbcfa1985	-0.030529747
22	0xbdc50da4	-0.09621742
23	0xbc9d6bfa	-0.019216526
24	0xbce58cea	-0.028021295
25	0xbd7df7f8	-0.06200406
26	0xbd7e55ca	-0.062093534
27	0xbc0bfa83	-0.008543613
28	0x3c54d8e4	0.012991164
29	0x3ddf26dd	0.108960845
30	0xbc9fbf77	-0.019500477
31	0x3c3797d9	0.011205637
32	0x3cb21e60	0.021743
33	0xbe03428c	-0.12818354
34	0xbc5459c6	-0.012960857
35	0xbcd30624	-0.025759764
36	0xbba1d0c7	-0.0049382183
37	0xbd93fbba	-0.072257474
38	0xbc098b18	-0.008394979
39	0xbce16b68	-0.027517036
40	0xbdb8fc26	-0.090324685
41	0xbd8ba1a0	-0.06817937
42	0xbd4c5d05	-0.049893398
43	0x3c53200f	0.012886061
44	0x3d74e4f1	0.059788648
45	0xbca69a42	-0.020337228
46	0xbcf6a5dc	-0.030108385
47	0x3cade72f	0.021228401
48	0xbd8b080a	-0.06788643
49	0xbabaceac	-0.0014252267
50	0xbb6765d2	-0.0035308492
51	0xbe198e4e	-0.14995691
52	0x3c3acaf2	0.011400925
53	0xbcc4cac4	-0.024022467
54	0xbd93b816	-0.07212846
55	0xbc537e83	-0.012908581
56	0x3dc3a7c6	0.095534846
57	0xbdfba3aa	-0.12287076
58	0xbd0c3533	-0.034230422
59	0xbd562a43	-0.052286398
60	0xbdfbdd20	-0.122980356
61	0xbd92180b	-0.07133492
62	0xbd852a1b	-0.065021716
63	0x3d75fab3	0.06005354
64	0xbd65e5a0	-0.05612719
65	0x3c04e175	0.008110394
66	0x3d2256fc	0.039633736
67	0x3b159bad	0.0022828386
68	0x3da9919c	0.08279726
69	0x3ca08cf8	0.01959847
70	0xbddbb9c4	-0.10728791
71	0x3d2defb1	0.042464916
72	0x3b2d9d8f	0.0026491617
73	0x3cc8c068	0.024505809
74	0x3dbf1fa2	0.09332205
75	0xbd28b6e5	-0.041190047
76	0xbdaf5fad	-0.085631706
77	0x3d889c3a	0.06670423
78	0xbbe68beb	-0.0070357225
79	0xbd073940	-0.033013582
80	0xbd6a2332	-0.05716247
81	0xbdb3efa5	-0.08785943
82	0xbcd49610	-0.025950462
83	0x3bccd15f	0.006250545
84	0xbd889026	-0.06668119
85	0xbdce24e4	-0.1006563
86	0x3d3b72f0	0.04576391
87	0xbda1c025	-0.07897977
88	0xbdfe34b8	-0.12412399
89	0xbd863823	-0.06553676
90	0xbd8e8dd6	-0.06960647
91	0x3d46fdea	0.048581995
92	0xbc8783ce	-0.016542342
93	0xbd3b0099	-0.045654867
94	0xbd7ce359	-0.061740253
95	0x3d124332	0.035708614
96	0xbd4e6504	-0.050389305
97	0xbd449780	-0.047996044
98	0x3c302d4b	0.010752986
99	0xbbc53c9c	-0.006019188
100	0xbdda02f7	-0.10645097
101	0xbd34742c	-0.044056103
102	0xbcea9a5b	-0.028638056
103	0xbe0a67ce	-0.13516161
104	0x3d4419c7	0.047876146
105	0xbd0c2cb3	-0.034222316
106	0xbb4be7da	-0.0031113536
107	0x3dc01aa8	0.09380084
108	0xbb48d1cf	-0.0030642634
109	0xbd6e3378	-0.058154553
110	0x3d857d97	0.06518095
111	0xbd864146	-0.06555419
112	0xbd9266c6	-0.07148509
113	0xbcc8072c	-0.024417482
114	0xbd874494	-0.06604877
115	0xbe0af188	-0.135687
116	0x3c6d34d5	0.014477928
117	0xbb5352f1	-0.0032245482
118	0xbb613664	-0.0034364695
119	0x3d19854a	0.03748063
120	0xbd86046a	-0.06543811
121	0x3c6d9440	0.014500678
122	0x3cde34cd	0.027124787
123	0xbce0c316	-0.027436774
124	0x3cb9500e	0.02262118
125	0x3d5ea2a3	0.05435432
126	0xbd0bc972	-0.03412766
127	0xba56dd25	-0.0008196405
128	0xbd2a3435	-0.041553695
129	0xbcf31bdf	-0.029676376
130	0xbd638b2e	-0.055552654
131	0x3cca23dd	0.024675304
132	0xbb8559d0	-0.0040695444
133	0xbd085de7	-0.033292677
134	0xbca6a604	-0.020342834
135	0xbc1344d3	-0.008988577
136	0x3d5be558	0.053685516
137	0x3de8eb94	0.11373058
138	0xbddb8b77	-0.1071996
139	0xbd27ca5b	-0.040964466
140	0x3dacbd8d	0.084345914
141	0xbbcd22ec	-0.0062602665
142	0xbd3c5758	-0.045981735
143	0xbd87983a	-0.06620832
144	0x3ce0d576	0.027445536
145	0x3da60fd4	0.08108488
146	0x3dd88f05	0.10574154
147	0x3beeee6f	0.007291607
148	0xbd105ba5	-0.03524365
149	0x3cd974c9	0.026544945
150	0x3b00bf1a	0.0019645155
151	0xbdbd1b43	-0.092337154
152	0xbdaf20cc	-0.085511774
153	0xbd8ce267	-0.0687912
154	0x3d1ef30f	0.038806017
155	0x3dcaba0b	0.09898766
156	0xbda55c4e	-0.08074246
157	0xbe01d568	-0.12679064
158	0xbbb98a91	-0.0056622704
159	0xbd87ca4f	-0.06630384
160	0x3c512572	0.012765275
161	0x3df0ba26	0.11754255
162	0x3b06925d	0.0020534017
163	0x3d17c6f9	0.03705499
164	0xbca94109	-0.020660894
165	0xbc465865	-0.012106036
166	0xbd0a134a	-0.0337098
167	0x3c5ccdc4	0.013476793
168	0x3c877c45	0.016538749
169	0xbdad85ec	-0.08472809
170	0x3d4ba6e7	0.049719717
171	0xbc9fc393	-0.019502437
172	0x3d87958c	0.06620321
173	0xbd977e1a	-0.07397099
174	0xbd439cd6	-0.047756992
175	0xbd105e94	-0.035246447
176	0x3d5f358b	0.054494422
177	0x3d89c18b	0.067263685
178	0x3d90c76e	0.07069288
179	0x3da111e8	0.078647435
180	0x3db47b4d	0.0881258
181	0x3d4c3764	0.049857512
182	0x3c1fc24b	0.009750913
183	0x3dadf96e	0.084948406
184	0x3d9a923d	0.07547424
185	0xbd364135	-0.04449578
186	0x3dc991bd	0.098422505
187	0x3cc93138	0.024559602
188	0x3dc142c5	0.094365634
189	0x3d467790	0.048453867
190	0x3cecd8b6	0.02891193
191	0x3d2bd5a6	0.041951798
192	0x3d3dd657	0.04634699
193	0xbcdc2a30	-0.026875585
194	0xbc988a0d	-0.018620515
195	0x391db12d	0.0001503869
196	0xbd4e0e1a	-0.050306417
197	0x3d2e7440	0.042591333
198	0xbd2ef9a8	-0.04271856
199	0xbca66386	-0.020311128
200	0x3d0cd999	0.034387205
201	0x3d1398ca	0.036034383
202	0xbd0a0c5c	-0.033703193
203	0xbc9cf175	-0.019158104
204	0xbdd1029b	-0.10205575
205	0x3d2039da	0.03911767
206	0xbd804a1a	-0.06264134
207	0x3d0cd056	0.034378372
208	0x3db5b1ce	0.08871804
209	0x3d8f8fda	0.070098594
210	0xbc229918	-0.009924196
211	0x3c9f2e21	0.019431176
212	0x3dd6df35	0.10491792
213	0xbd8e87df	-0.06959509
214	0x3d434ac9	0.047678743
215	0x3d2790e1	0.04090965
216	0xb977c637	-0.00023629596
217	0xbd6d505a	-0.057937957
218	0xbd8f29c9	-0.06990392
219	0xbd85b744	-0.06529096
220	0x3c851110	0.016243488
221	0x3a0de183	0.0005412327
222	0xbdd63307	-0.104589514
223	0xbdad450a	-0.08460434
224	0xbd4d2133	-0.05008049
225	0xbd273bd7	-0.040828552
226	0xbd6eb7ac	-0.058280632
227	0x3d03d103	0.03218175
228	0xbd24494d	-0.040108968
229	0xbd724ce0	-0.059155345
230	0xbcf9a544	-0.030474313
231	0xbcafb47e	-0.02144837
232	0xbddc8e1f	-0.10769295
233	0xbde360f4	-0.11102477
234	0xbd4eedb3	-0.050519656
235	0x3d9c0a84	0.07619193
236	0x3d9c1b0f	0.076223485
237	0xbd8f4bf6	-0.0699691
238	0x3da65f6a	0.081236675
239	0x3ddc0581	0.10743237
240	0xbd9f1fcc	-0.07769737
241	0x3d71fab8	0.059076995
242	0x3d5e104c	0.05421476
243	0x3cb8f715	0.022578755
244	0x3d83de5f	0.06438898
245	0xbc83e8cc	-0.016102217
246	0x3cff2ffa	0.031150807
247	0x3b803c0a	0.003913407
248	0x3cd67095	0.02617673
249	0x3d9bca1f	0.07606911
250	0x3d2288aa	0.039681114
251	0xbd08979f	-0.033347722
252	0x3d5a15df	0.053243514
253	0xbc795988	-0.0152191
254	0xbc127b2a	-0.008940497
255	0xbd97c0c1	-0.07409812

layer_block_3.0.bias f4 [20]
0	0xbcb407b6	-0.021976333
1	0x3ccb4a6c	0.02481576
2	0x3d48c9f6	0.04902073
3	0xbc90bde5	-0.017668674
4	0xba8ffc84	-0.001098529
5	0xbd633e80	-0.055479527
6	0x3c96f270	0.01842615
7	0xbd88b28d	-0.06674681
8	0xbd13d78a	-0.036094226
9	0xbd4f0c8d	-0.05054908
10	0xbd9ddde7	-0.0770834
11	0x3cdebcfd	0.027189726
12	0xbdc3c22d	-0.095585205
13	0x3d43ecfa	0.04783342
14	0xbd420f6b	-0.047377985
15	0x3c8a2e3c	0.01686775
16	0xbd334cff	-0.0437746
17	0x3d31d7ba	0.043418624
18	0xbb4d7def	-0.003135558
19	0xbda7dd5a	-0.08196516

layer_block_3.2.weight f4 [20, 20, 3, 3]
0	0x3b983d32	0.004645967
1	0xbdf022fa	-0.11725421
2	0xbe294c69	-0.16533054
3	0xbd5fe728	-0.054663807
4	0xbd78b523	-0.06071962
5	0xbd90acef	-0.070642345
6	0x3c70d72c	0.0146997385
7	0xbca1b5d8	-0.01974003
8	0xbc9112c3	-0.017709142
9	0xbd178afa	-0.036997773
10	0x3de97153	0.11398568
11	0xbdbd490e	-0.0924245
12	0x3d9cde0f	0.07659542
13	0xbb8f0e5c	-0.0043657254
14	0xbd8fa1f7	-0.07013314
15	0x3d8f7a0b	0.070057
16	0x3de2f0ab	0.1108106
17	0xbc5ab17b	-0.013347979
18	0xbcf541b0	-0.029938549
19	0xbaeccf79	-0.0018067203
20	0xbc7e4d05	-0.015521293
21	0xbdf11d6b	-0.11773189
22	0xbd8b4a1c	-0.068012446
23	0x3caa8fff	0.020820616
24	0xbd86df83	-0.065856
25	0xbe1f16e7	-0.1553608
26	0xbdea9fcc	-0.1145626
27	0x3d1d2ad1	0.03837091
28	0xbd5dc407	-0.054142024
29	0xbd94929d	-0.07254527
30	0x3b9ab3e6	0.0047211526
31	0xbca1384c	-0.019680165
32	0x3d8a5855	0.06755129
33	0xbd64b5db	-0.055837493
34	0x3d454c92	0.048168726
35	0x3c89e5a3	0.016833132
36	0x3cc471a9	0.023979979
37	0x3cea2c5d	0.028585607
38	0x3c7871e9	0.015163877
39	0x3d18a665	0.03726806
40	0xbd8855a0	-0.06656957
41	0x3d414f4e	0.04719477
42	0x3d32e0ae	0.043671302
43	0x3c35ec28	0.011103667
44	0xbcaaa1ce	-0.020829108
45	0xbceba4c8	-0.028765097
46	0xbe2d232c	-0.16907948
47	0xbc0e9aed	-0.008703929
48	0xbd8805ec	-0.066417545
49	0xbe04eb83	-0.12980466
50	0x3d299312	0.041400023
51	0xbd8bf601	-0.06834031
52	0xbcefb12a	-0.029259283
53	0xbd58d32a	-0.052935757
54	0xbd65c4f5	-0.056096036
55	0xbc17480a	-0.009233484
56	0x3d191662	0.03737486
57	0xbd8d50a2	-0.06900145
58	0x3c0df5d1	0.008664564
59	0x3e0d9566	0.13826522
60	0xbdc2ecfc	-0.095178574
61	0x3dac2646	0.084057376
62	0x3df396c3	0.1189399
63	0xbe4cb4ec	-0.19990891
64	0xbe11e5be	-0.14247796
65	0xbdf815f9	-0.12113566
66	0xbe4707b6	-0.19436535
67	0xbdac7e9e	-0.08422588
68	0xbe1921df	-0.14954327
69	0xbd99f0e3	-0.075166486
70	0xbe5b843c	-0.21437162
71	0xbdf3c0d0	-0.119020104
72	0xbdad64c0	-0.08466482
73	0x3cb4f4b9	0.02208935
74	0xbdff5b38	-0.124685705
75	0xbc9a3522	-0.018824164
76	0xbd99099c	-0.07472536
77	0xbc6d317e	-0.014477132
78	0x3c4fc684	0.012681607
79	0xbd86b78d	-0.06577978
80	0xbdc3006a	-0.09521563
81	0xbd58035f	-0.05273759
82	0x3df97cfb	0.12182041
83	0x3d648079	0.055786584
84	0xbdcf0c59	-0.10109777
85	0x3d3c429d	0.045961965
86	0x3d1ed8d9	0.03878102
87	0x3d51addc	0.051191196
88	0xbd4e1066	-0.050308608
89	0x3c8fa172	0.017533038
90	0x3d6b69bc	0.057473883
91	0x3c0b8189	0.00851477
92	0xbafbceb6	-0.0019211385
93	0xbd86cb71	-0.06581772
94	0xbd90660d	-0.07050715
95	0xba55f052	-0.00081611157
96	0xbd7ad232	-0.061235614
97	0x3ce21582	0.027598146
98	0x3d2f35ec	0.042776033
99	0xbd9adfd1	-0.07562221
100	0x3ce7a38f	0.028276233
101	0x3d101201	0.03517342
102	0x3cf88391	0.030336173
103	0xbdd7bde2	-0.10534264
104	0x3d931fbf	0.071837895
105	0x3d5acf3d	0.053420294
106	0xbdfc287c	-0.12312409
107	0xbaba43be	-0.0014210863
108	0xbe088757	-0.13332878
109	0xbd7557e3	-0.05989827
110	0xbd851fec	-0.06500229
111	0xbdb47128	-0.08810645
112	0xbd030e06	-0.031995796
113	0xbc984884	-0.018589266
114	0x3d728c98	0.059216112
115	0x3d51db3c	0.05123447
116	0xbd5f83b4	-0.05456896
117	0xbd0dd5bc	-0.03462766
118	0xbc621156	-0.0137980785
119	0x3dbfac82	0.09359075
120	0x3d310a80	0.043222904
121	0xbdf16d77	-0.11788457
122	0x3da25c79	0.07927794
123	0xbd6fbdd0	-0.05853063
124	0xbd5ba7dd	-0.053626884
125	0xbd207aa5	-0.039179463
126	0xbdad0504	-0.08448222
127	0xbe37b8d8	-0.17941606
128	0xbdef7f38	-0.11694187
129	0xbe11fff9	-0.14257802
130	0xbda73389	-0.081641264
131	0xbe81b8af	-0.25336215
132	0xbc7dc353	-0.015488463
133	0xbc84207b	-0.01612877
134	0xbe805cc3	-0.25070772
135	0xbcbdb5d1	-0.023157986
136	0x3d28daf9	0.041224454
137	0x3cf40dd1	0.029791744
138	0x3dba14ed	0.090860225
139	0x3d305070	0.04304546
140	0xbd95b047	-0.07309013
141	0x3da58560	0.0808208
142	0xbd48c31c	-0.049014196
143	0xbd177439	-0.036976073
144	0x3ca6d58c	0.020365499
145	0x3d248260	0.040163398
146	0xbbeecb8e	-0.007287449
147	0xbb9f7378	-0.00486606
148	0xbd304828	-0.043037564
149	0xbc90f1d1	-0.017693432
150	0x3c30e5ca	0.0107969735
151	0x3bbe316b	0.005804231
152	0x3d5cd80f	0.053916987
153	0x3d608a28	0.054819256
154	0xbcaf93ae	-0.021432724
155	0x3bc57fa5	0.0060271793
156	0xbcbe80f2	-0.023254845
157	0xbd5dc117	-0.054139223
158	0x3da46f13	0.08028998
159	0x3ce04930	0.027378649
160	0xbe175e49	-0.1478206
161	0xbde20554	-0.110361725
162	0x3d1d6c48	0.038433343
163	0xbc8c3caf	-0.01711878
164	0xbd2bd4ac	-0.041950867
165	0x3d0f2177	0.034944024
166	0x3cefbe88	0.029265657
167	0xbe1fce7a	-0.15606108
168	0x3e2d941e	0.16951033
169	0x3cb94ee8	0.022620633
170	0xbdc8c7be	-0.09803723
171	0x3cd31902	0.02576876
172	0xbd857b9c	-0.06517717
173	0x3cb4dc9b	0.02207785
174	0x3dbeaefc	0.09310719
175	0xbca6fbd8	-0.02038376
176	0xbd689e85	-0.0567918
177	0xbd4be31f	-0.049777146
178	0xbd9431b4	-0.072360426
179	0xbd3e204a	-0.046417512
180	0xbc036302	-0.008019211
181	0x3e01691d	0.12637754
182	0x3db66721	0.08906389
183	0x3ccbf46f	0.024896828
184	0x3e0799ad	0.13242216
185	0x3b598a85	0.0033194136
186	0x3d6850b8	0.056717604
187	0xbc95a797	-0.01826839
188	0x3dd6ea32	0.10493888
189	0xbd4d1dda	-0.050077297
190	0x3d918a7c	0.07106492
191	0x3cb1e205	0.02171422
192	0xbd53730f	-0.0516234
193	0x3d80a30f	0.06281101
194	0x3d20872d	0.039191414
195	0xbd2fcf1e	-0.04292213
196	0xbc609096	-0.013706347
197	0xbd95bb32	-0.07311095
198	0xbdb88d63	-0.090113424
199	0xbcc1890c	-0.02362492
200	0xbd96cbf8	-0.07363123
201	0xbe297801	-0.16549684
202	0x3cbce7c3	0.023059731
203	0x3bb26484	0.0054441113
204	0xbe5d5176	-0.21613106
205	0xbe0af68b	-0.13570611
206	0xbdd81cdd	-0.1055238
207	0x3d54320b	0.051805537
208	0xbc8feebd	-0.017569894
209	0xbcf7dd60	-0.030256927
210	0x3901e7ce	0.00012388753
211	0xbc73df68	-0.014884807
212	0x3cfa0872	0.030521605
213	0xbd31d326	-0.043414257
214	0x3ce90bd3	0.028448021
215	0x3d7687be	0.060188048
216	0x3cb87e99	0.022521304
217	0x3d351ac6	0.044214986
218	0xbd6046fd	-0.0547552
219	0x3d16d16f	0.036820825
220	0xbd7a85b2	-0.061162658
221	0xbc07954d	-0.008275342
222	0xbcb5362c	-0.022120558
223	0x3da82d08	0.08211714
224	0xbc5c12dd	-0.013432232
225	0x3ddfd3e8	0.1092909
226	0x3e0fc6a3	0.14040618
227	0x3ceb50b4	0.028725006
228	0x3de5a161	0.11212421
229	0x3df91f80	0.12164211
230	0xbcafd180	-0.021462202
231	0xbcab360c	-0.020899795
232	0x3dabb82d	0.08384738
233	0x3d889c02	0.06670381
234	0xbb1a868a	-0.0023578727
235	0x3d94cda4	0.07265785
236	0x3d7ec448	0.062198907
237	0x3c276aab	0.010218303
238	0xbd803785	-0.062605895
239	0x3d949da0	0.07256627
240	0xbd3561f4	-0.04428287
241	0xbb75a14c	-0.0037480174
242	0xbd6d2c5d	-0.057903636
243	0x3de6fb59	0.112784095
244	0x3ba62447	0.0050702426
245	0xbd9b92aa	-0.07596333
246	0xbceab513	-0.028650796
247	0x3ca7c529	0.020479755
248	0xbd441d6e	-0.04787963
249	0xbd06ffe6	-0.032958888
250	0xbd01528b	-0.03157286
251	0x3d6c96d6	0.057761036
252	0x3db0e728	0.086378396
253	0x3dcd090f	0.100114934
254	0x3c61c62c	0.013780158
255	0x3d196dfc	0.037458405

layer_block_3.2.bias f4 [20]
0	0x3bbf5166	0.005838561
1	0x3d228ed9	0.03968701
2	0xbd2ef723	-0.042716157
3	0xbc1841c2	-0.009293022
4	0x3c6096ec	0.013707858
5	0xbd993482	-0.07480718
6	0x3d6a8637	0.057256903
7	0xbc8bad10	-0.017050296
8	0xbd53baf6	-0.05169197
9	0xbda2c395	-0.079474606
10	0xbd7a69bb	-0.06113599
11	0xbd9660b7	-0.07342666
12	0x3c1228f2	0.008920895
13	0x3de88260	0.11352992
14	0xbd90f7f7	-0.070785455
15	0x3b4d6378	0.0031339806
16	0x3cea363d	0.028590316
17	0x3cd0b422	0.025476519
18	0xbd90c3f7	-0.07068627
19	0xbd376671	-0.04477543
